disease_predictor_final.pt (torch, 29565 bytes, 4 tensors)

network.0.weight f4 [128, 10]
000000 9a e7 ad 3f 6c d2 f5 bb ea 6f 49 bc d9 d6 00 3c
       1.3586304 -0.007501891 -0.012294749 0.007863724
000010 b1 84 9d 3c 22 4c ab 3a 86 d9 0c 3c 91 2c 66 3b
       0.019228311 0.0013068954 0.0085967835 0.0035121778
000020 9d 6c ac bc fe ea a1 3b fd b7 1d 41 63 57 4e ba
       -0.021047885 0.0049413433 9.857419 -0.0007871298
000030 a2 d1 f2 bc ed 0d 12 3d ee b3 65 bb 6f e8 06 bd
       -0.029640976 0.035657812 -0.0035049873 -0.03293651
000040 bb 55 09 3c 7f e0 07 bd ff 17 83 3b d0 3b 33 3d
       0.008382256 -0.03317308 0.0040006633 0.043758214
000050 b6 fb 3f 40 94 b8 2d bc 0e a1 93 bc 54 17 7f bb
       2.9997382 -0.010603089 -0.018021133 -0.0038923817
000060 fc a5 07 3c 3f 7d 08 3d 08 1e 0f bc cc 93 81 bc
       0.00827932 0.03332257 -0.008735187 -0.015817545
000070 56 ae 1e bd be de c6 3b 0b 53 4a 40 16 57 09 bc
       -0.03874048 0.0060690334 3.1613185 -0.008382579
000080 d5 26 9c bb 4b c6 76 3c 98 f7 a2 3c 92 d8 07 bc
       -0.0047653713 0.015061925 0.019893453 -0.0082913805
000090 72 3e 46 3c fb 45 c6 3a d5 bb af bc ff 98 5d 3b
       0.012099849 0.0015127057 -0.02145187 0.0033813117
0000a0 91 d0 e7 3b fc c0 52 be 0e 4a c1 3c 2f 6a 16 3e
       0.0070744236 -0.2058143 0.023594882 0.14688943
0000b0 74 a8 18 3d ee 04 83 be fe f9 57 3e 9e fd 81 bd
       0.037270024 -0.255897 0.21091458 -0.06347202
0000c0 3d c8 66 3d 94 d6 5e be ff ed 91 be 63 c6 03 3c
       0.056343306 -0.21761543 -0.2850189 0.008042905
0000d0 fc 79 34 bc 2e 60 cc bd 9e b6 57 3d 68 ab 41 3e
       -0.0110154115 -0.09979282 0.05266439 0.18913043
0000e0 a1 eb 73 3e 4c 96 34 3e b1 19 0c be e2 74 9d 3e
       0.23820354 0.17635459 -0.13681675 0.30753237
0000f0 2a bb 0e 40 6c eb 30 bc 08 24 c7 bc 42 45 8f ba
       2.2301736 -0.010798316 -0.024309173 -0.0010930675
000100 8d ce 49 3c 34 20 04 3d 09 97 8d bc 20 02 82 bc
       0.012317312 0.032257274 -0.017283933 -0.015870154
000110 c4 dc c0 bc 3d 35 7b 3c 6b 6d 43 be 81 95 9c 3c
       -0.02354277 0.015332517 -0.19084708 0.019114258
000120 b6 ce 59 be 88 7b 8f be 65 e1 13 3e bb d0 24 3e
       -0.2127026 -0.28023934 0.1444145 0.1609525
000130 a5 45 72 be ef f9 3d 3d a8 88 4f 3e aa 77 06 be
       -0.2365938 0.046380933 0.20266974 -0.13131586
000140 7d 21 17 3e 71 a0 03 3c 90 27 10 be d4 bc 14 bd
       0.14758869 0.008033858 -0.14077592 -0.036312893
000150 69 83 fe 3d 4b 96 0d be 02 69 7b 3d d3 bc 54 3e
       0.12427408 -0.13826863 0.06137944 0.20775156
000160 51 40 20 be f1 b0 19 be d1 65 5f 40 52 9c 4c bc
       -0.15649535 -0.15008904 3.4905894 -0.012488442
000170 d8 5e fc bc 39 48 4d bc 9c ec 9d 3c 9a 71 0a 3d
       -0.030806944 -0.012529426 0.019277863 0.033799745
000180 7b fe 8d bc e7 7d d7 bc d2 8e a6 bc 2f db 1d 3c
       -0.01733326 -0.026305152 -0.020331774 0.009634777
000190 fa ff 98 bf df 2d 8e 3b d8 65 17 3c 37 16 c4 bb
       -1.1953118 0.0043389644 0.00924059 -0.0059840935
0001a0 58 dc 85 bc 82 4f 6a 3c e5 94 d5 bb b8 37 e3 ba
       -0.01634042 0.014301183 -0.0065179938 -0.0017335331
0001b0 65 ba b6 3b 04 a7 56 3a 29 ab 48 be 81 d3 2f 3e
       0.005576419 0.00081883394 -0.19596542 0.17170526
0001c0 86 8e 9c be 0c f9 a7 bd 84 16 e2 bd aa cc 0a 3e
       -0.30577487 -0.08201799 -0.11039451 0.13554636
0001d0 cd 9e 0d be e0 61 2e bc 48 66 04 3e 22 b9 01 3c
       -0.13830109 -0.010643452 0.12929642 0.007917674
0001e0 5a 68 39 bf 78 d0 f8 3b d8 b8 f5 3b d1 2e 07 bc
       -0.7242485 0.007593211 0.0074988417 -0.008250908
0001f0 be 66 f2 bb f7 51 ab bb d2 80 8f b9 fa d7 e7 b8
       -0.0073975017 -0.005228277 -0.00027371064 -0.00011055167
000200 47 29 f8 bb c5 9e 28 3c 36 ce 9a 3f 50 c8 96 bc
       -0.00757328 0.01029176 1.209418 -0.018406063
000210 d2 13 01 bd 1f 15 1c ba 0a a0 7e 3b c1 9b 2b 3d
       -0.031513043 -0.0005954075 0.0038852715 0.041896585
000220 12 0e f0 bc e9 1b 92 bc 3f e5 c1 bc 6e 2f 88 3c
       -0.029303584 -0.017835574 -0.023668883 0.016624179
000230 87 a6 23 bd bd 61 5f be 77 24 ae 3d 66 cf b0 3d
       -0.039953735 -0.21814628 0.08503049 0.08633308
000240 77 de 87 be de 10 a9 bd d7 48 5e 3e 5a 38 58 3c
       -0.26536915 -0.0825517 0.21707474 0.013197029
000250 cf 13 1b 3e f7 8d 02 3e 7a ce 2c 3e 0d 84 3c be
       0.15144275 0.12749468 0.1687564 -0.18409748
000260 49 89 26 be 82 8f 9f be 11 2a 86 3e 08 db e2 bd
       -0.16263308 -0.31164175 0.2620397 -0.11076933
000270 dc 22 8d bd f7 9d 2c 3e ef ee 8b 3d 80 2a 2f be
       -0.068914145 0.16857134 0.06832682 -0.17106056
000280 d5 56 0c bd 03 87 72 bd 9b 52 99 bd b6 0d da bd
       -0.034262497 -0.05921079 -0.07486459 -0.106471464
000290 18 70 a3 bc 2f f3 6c be b0 c9 88 be 58 97 d3 3d
       -0.019950911 -0.23139642 -0.26716375 0.10331601
0002a0 d4 51 90 be 08 d7 8c be 56 70 9d bc eb fb 08 3d
       -0.2818743 -0.27507806 -0.019218605 0.033443373
0002b0 cc be 85 be da 5b 99 3e 1a e0 10 3e e8 f9 82 be
       -0.2612213 0.2995289 0.14147988 -0.25581288
0002c0 23 62 85 be 93 67 7e 3e 9b 41 6c be 27 aa f5 3d
       -0.26051435 0.24844198 -0.23071902 0.119953446
0002d0 1e 36 80 bf 22 6d 91 3c 1c 3b 09 3c 32 88 00 bc
       -1.0016515 0.017752234 0.008375909 -0.0078449715
0002e0 e8 37 b5 ba 91 62 5a 3b eb 97 84 bb bb 7d f3 bb
       -0.0013825865 0.003332291 -0.0040464303 -0.0074307597
0002f0 4d ec e0 3a 96 e1 1e 3b f5 9d 13 41 55 c4 f9 3c
       0.0017160267 0.0024243346 9.226064 0.030489126
000300 14 53 1a 3d 36 1e 18 bd 8e f2 a1 3c 57 2f 46 bb
       0.037676886 -0.037138186 0.01976898 -0.003024062
000310 0c e2 bd 3c db 76 9b 3c ad 10 ec bb 04 26 b3 bb
       0.023179077 0.018977573 -0.0072041363 -0.0054671783
000320 fb 7a 02 bf 4f dc a8 b9 3b 0d 6d 3b 42 e3 b7 38
       -0.50968903 -0.000322076 0.0036171216 8.76845e-05
000330 75 0b d9 bb a2 e7 d9 bb 8a 73 d6 37 72 bf 9a 3b
       -0.0066236802 -0.0066499272 2.556459e-05 0.004722529
000340 87 f8 fc bb 85 60 59 bb ce a0 92 be 3b b4 07 bd
       -0.0077200565 -0.0033169102 -0.2863831 -0.033130866
000350 37 fb 84 be 96 1c 95 3e 28 08 7a be d4 fd 27 3e
       -0.25972912 0.29123372 -0.24417174 0.16405421
000360 50 d7 8e bc a2 40 87 be f2 0e 8e 3e 1c a6 91 be
       -0.017436653 -0.26416498 0.27745777 -0.28447044
000370 a0 a7 0c bf a5 63 12 3d 2e d3 4e 3d 9e c8 52 bd
       -0.54943275 0.03573956 0.050494365 -0.051460855
000380 87 11 c7 3d d4 a9 52 bc 96 b7 3f 3d d3 76 99 bc
       0.0972014 -0.012857873 0.04680594 -0.018733418
000390 e1 63 3d 3c a1 b3 e7 bc ed ae a5 c0 d9 2e 65 3c
       0.0115594575 -0.028283896 -5.1776032 0.01398822
0003a0 02 7b a7 bc f6 0f 97 3b 6c ff b6 3c ae ff bf bc
       -0.020444397 0.004610057 0.022338592 -0.023437347
0003b0 8f a7 99 bb 22 9b 38 bd 0e 78 9b 3c df 3c 2b 3d
       -0.004689164 -0.04506982 0.018978145 0.041806098
0003c0 e4 3f d2 3f b1 c3 0a bc b2 07 d5 bb 39 99 65 3c
       1.6425748 -0.008469508 -0.0065011615 0.014013582
0003d0 84 98 9b 3c 01 26 97 3b d0 31 25 3c a1 b8 98 3b
       0.018993624 0.0046126847 0.010082677 0.0046606814
0003e0 35 a8 87 bc 70 49 1e 3b e2 c5 8a 3f ec af be bb
       -0.0165597 0.002415266 1.0841639 -0.0058193114
0003f0 cf 8f af bc 90 43 be bb 49 0f f1 3a 8c ba f8 3c
       -0.021430878 -0.005806394 0.0018391396 0.03036239

network.0.bias f4 [128]
000000 19 81 05 bd 9b f4 51 bf 58 5e ec 3a 3b 3d a3 bd
       -0.03259382 -0.82013863 0.0018033488 -0.07970663
000010 a5 49 8b be 18 eb 87 be e0 77 03 3b 31 61 78 be
       -0.27204624 -0.2654655 0.0020060465 -0.24255826
000020 5b b9 88 be f3 61 62 3b 85 1f 95 3f 06 5b a0 be
       -0.26703915 0.0034543246 1.1650244 -0.31319445
000030 e9 ff 2f 3f 1f 97 8a 3b 3b 60 73 be b6 52 86 be
       0.6874986 0.004229441 -0.23767178 -0.26234978
000040 31 bb 5d be e7 ff f4 bd 85 ab 79 3f c9 b9 a7 bf
       -0.21653439 -0.11962872 0.97527343 -1.3103572
000050 b7 b7 f7 3e 10 03 9b be 2d ab 0d 3f c6 f4 5d 40
       0.4838235 -0.30275774 0.5533932 3.4680648
000060 d9 71 23 bd 0c 31 79 3b 4c 76 d3 3f c7 31 9e 3a
       -0.039903495 0.003802362 1.6520476 0.0012069278
000070 33 0f ed bd f9 b9 a1 bd 14 30 03 40 32 40 6b be
       -0.11575165 -0.078967996 2.0498095 -0.22973707
000080 80 08 13 c0 2a e0 50 3b 43 ff 6f bd 6f 91 d9 bc
       -2.2973938 0.0031871893 -0.058593046 -0.026558606
000090 4d 31 27 40 91 ea 19 be 18 44 00 bd 31 e1 f1 bc
       2.612384 -0.15030886 -0.03131494 -0.029526325
0000a0 bb a6 86 3f ea d4 7a 3f fb 3b 2f 3b c4 a5 bf 3f
       1.0519632 0.9798113 0.0026738632 1.4972463
0000b0 e6 1d 39 3b 42 98 30 be fd 5e 46 3b 87 1a 82 be
       0.002824658 -0.17245582 0.003026902 -0.25410864
0000c0 34 00 0f 40 ca f7 5c be cc 19 01 40 01 9a cb 3f
       2.2343874 -0.21578899 2.0171995 1.5906373
0000d0 2b cc 60 be 62 0f 9f 3b 16 4e e3 3f 7b a1 2c 3f
       -0.21952884 0.0048541287 1.7758205 0.674339
0000e0 1a 85 28 40 51 24 73 be 16 14 87 3b df 72 2f bd
       2.6331239 -0.23744322 0.0041222675 -0.04283416
0000f0 ec fc 50 3f 6b ee d7 bc 0f 58 4c bd 2e 2e 35 3b
       0.8163593 -0.026358804 -0.049888667 0.0027645933
000100 1a 71 16 be 5b 78 60 bd 5d 63 4e 40 c4 49 4c bd
       -0.14691582 -0.05480228 3.2248147 -0.049875036
000110 a7 b0 d9 3f 80 59 38 be 5c 6e bf 3f 8f 45 51 3f
       1.7007035 -0.18002892 1.4955554 0.81746763
000120 d4 47 87 3f a9 1c e0 3f 27 3b 44 bd cc a9 30 bc
       1.0568795 1.7508746 -0.047907975 -0.01078267
000130 b7 8a 1c be 1e a4 99 be 1b a2 fe bd 09 ef 2f be
       -0.1528729 -0.30008024 -0.12433263 -0.17181028
000140 4c d1 83 bd fa d2 8f be 25 40 01 40 ef ba 97 3b
       -0.064364046 -0.2809065 2.01954 0.0046304385
000150 55 a4 7c 3f df 71 9b be f2 c5 cc 3f 08 8b 55 3b
       0.9868825 -0.30360314 1.5997908 0.003258409
000160 7a 0f ea be 5b 42 3a c0 13 40 74 3f eb 09 e4 bd
       -0.45714933 -2.9103 0.9541027 -0.11134704
000170 4f 4c 15 3b ad a6 9c be e1 8a 51 40 53 3a 65 3f
       0.002278108 -0.30595914 3.2741015 0.8954212
000180 70 14 c1 3f aa e3 2b 40 56 25 70 bc 77 f2 a3 3f
       1.5084362 2.6857705 -0.014657339 1.2808369
000190 de 6c 47 40 79 c3 b2 3b b7 ed 07 bd c5 4c d2 3f
       3.1160197 0.005455431 -0.033185687 1.6429678
0001a0 c5 35 b6 bd 58 94 40 be 61 62 28 40 36 ec bd 3f
       -0.088969745 -0.18806589 2.6310046 1.4837711
0001b0 62 e3 49 be 8a 90 e8 bf 5b 69 60 be 31 29 d2 bd
       -0.19715646 -1.816911 -0.2191519 -0.10261763
0001c0 e3 6c 8a be 5e ff 2b be 39 f9 8c 3f 2a ce 55 be
       -0.270362 -0.16796634 1.1013557 -0.20879427
0001d0 a1 71 1c 3f da f3 51 3f 70 e4 5a be fa cc a9 3f
       0.61110884 0.8201271 -0.21376204 1.3265679
0001e0 31 db 40 3b 35 4f 36 be bf eb 79 be 07 c2 f8 bc
       0.0029427523 -0.17803653 -0.24406336 -0.030365957
0001f0 8d 2f b6 3f 57 48 2e be b8 5a 9f bc ea 8b c3 bd
       1.4233261 -0.17019783 -0.019452438 -0.09548171

network.3.weight f4 [41, 128]
000000 34 1c b9 bf 0f 5b bb bf 46 35 96 c1 87 c2 b5 bf
       -1.4461732 -1.4637164 -18.776012 -1.419999
000010 62 f8 3f bd be ca 99 bd e1 63 85 c1 67 0a 49 3d
       -0.046867736 -0.07509373 -16.673769 0.049082186
000020 31 4f 4f 3d 14 b1 99 c1 85 ec db bd 3e 2e 88 3d
       0.050612632 -19.211464 -0.10738472 0.06649445
000030 4c af 90 be 09 bd 2f c1 34 02 08 3c d3 d9 aa bd
       -0.2825874 -10.983651 0.0083013065 -0.08342328
000040 6c c0 96 3d ef 2f 6b 3d af a7 56 be 74 a8 1c c0
       0.0736092 0.05741876 -0.20962404 -2.4477816
000050 8a 31 d1 be a1 2c 5c 3c 2e c4 cd be 13 26 d5 3e
       -0.40858108 0.013438375 -0.40188736 0.4163061
000060 8c 41 a6 bf 1a d8 46 c1 b5 25 48 3d 97 d3 1a c1
       -1.2988753 -12.427759 0.048864085 -9.676658
000070 ea d3 cf c0 30 9a 70 bd cf 7c 76 3e fa 48 5d 3b
       -6.4946184 -0.058740795 0.24071048 0.0033765421
000080 43 d5 07 bf aa a0 3e c1 47 dc 95 3c d2 aa d5 3c
       -0.53059787 -11.914225 0.018293513 0.02608243
000090 96 23 ce 3e d9 71 0a c1 45 13 91 bf 56 1e a8 bd
       0.40261525 -8.652795 -1.1334006 -0.08208911
0000a0 7e 3c b1 bd 3b cb 69 bd 0a 4c 64 c1 d0 61 6e 3d
       -0.08654116 -0.05707858 -14.268564 0.05819875
0000b0 9f fa 9f c1 11 8f b7 3c 3c 59 8f c1 2b 99 91 bd
       -19.997374 0.022407087 -17.918571 -0.071092926
0000c0 d0 6d 32 3e 79 23 81 bc 34 95 4a 3e 57 fe a9 3d
       0.17424703 -0.015763985 0.19783479 0.083004646
0000d0 69 eb 09 3d 1c 77 83 c1 33 56 e6 3d 61 7a 5a be
       0.03367177 -16.433159 0.1124691 -0.21335746
0000e0 67 f9 8d 3e cd 19 13 3d cf ba 98 c1 0e eb 4d bf
       0.2772934 0.035913277 -19.091215 -0.8043679
0000f0 ca 56 8a be e8 95 29 bf 78 a8 7c 3b 4b c2 96 c1
       -0.2701934 -0.66244364 0.0038552564 -18.84487
000100 4f 9d 92 3d df 5a 95 3d 11 6e fb 3e 4b b6 d7 bf
       0.071589105 0.07292723 0.49107412 -1.6852506
000110 92 45 b7 3d 5a 69 65 bf 4b a7 4d ba e9 78 87 be
       0.08948816 -0.8961388 -0.0007845058 -0.26459435
000120 b3 35 e1 bd 77 c8 ac 3d 3e b2 ff 3c 02 4c 8e bf
       -0.109965704 0.08436673 0.031212922 -1.1116946
000130 94 c6 ed 3c e4 8d 3c 3c 36 ab 2a 3d 98 2c 4c bd
       0.029025353 0.011508439 0.041667186 -0.049847215
000140 4d 94 1a bc 92 80 2b 3c 23 93 32 3e b6 d1 93 c1
       -0.009434772 0.010467665 0.1743894 -18.477398
000150 2f 28 37 be f6 8d 87 3d 2b 5a 46 3d 0e f6 99 c1
       -0.17886423 0.06618874 0.048425835 -19.245144
000160 10 f7 2e c0 84 4b c0 bf 48 f0 ed bd 1c e4 99 3d
       -2.7338295 -1.5023046 -0.11618096 0.075142115
000170 b0 01 53 c1 9c 47 43 3d 3f 8b 0d 3f 65 9f 44 be
       -13.187912 0.047675714 0.552906 -0.19201429
000180 a2 a6 83 3c 82 94 ca 3e 2c 13 93 bf 41 3d c6 3c
       0.016070668 0.39566427 -1.1490226 0.02419913
000190 b0 26 f9 3e 77 cb 3d c1 3a ad 36 bf b4 15 a8 3d
       0.4866233 -11.862174 -0.7135807 0.082072645
0001a0 49 2d 6e bc 5a a1 37 3d f7 48 b7 3e 20 ba a6 3d
       -0.014537164 0.04483161 0.35797855 0.08140969
0001b0 f1 a2 5e bf 80 6c 06 c0 f3 f2 80 3c 6a a3 83 3d
       -0.8696738 -2.1003723 0.015740847 0.06427653
0001c0 56 cc 8e 3c 3f 57 93 bd 6e b7 48 bd fa 84 3a 3b
       0.01743142 -0.07194375 -0.049003057 0.0028460608
0001d0 08 77 96 be df c7 07 be cf 77 99 3d aa ee 39 bd
       -0.2938769 -0.13259839 0.07493555 -0.045393623
0001e0 08 e9 18 c1 df 5e 01 3d 49 1b 4d 3d c3 97 31 bd
       -9.556892 0.031584617 0.05007485 -0.043357622
0001f0 18 ad b7 bb 38 84 7e bd bb 2d 8c bf 7e c2 c7 bf
       -0.005605351 -0.062137812 -1.0951456 -1.5606229
000200 1b 14 68 c1 60 45 0f c1 66 1c b8 40 bb e7 a4 c1
       -14.504909 -8.954437 5.7534666 -20.61315
000210 58 e5 c6 bc 74 14 08 bc 1c 4b b4 40 5a 5f 63 3d
       -0.024279281 -0.008305658 5.6341686 0.055510856
000220 9d bc 08 b8 24 ba ac 40 f4 58 e2 bd 62 d4 87 3d
       -3.2600587e-05 5.3977222 -0.11052123 0.06632306
000230 38 f6 7a be a7 a0 8e 40 76 ab ab 3c b3 11 5b bc
       -0.24507987 4.457111 0.020955782 -0.013370919
000240 de 94 b1 bd 76 be 3c bd 1d b7 1e be 91 08 4a c0
       -0.08670972 -0.046080075 -0.1549954 -3.1567729
000250 19 20 95 be 84 dc 82 3d bc f2 6c be 89 ea a3 3d
       -0.2912605 0.06389716 -0.23139471 0.080037184
000260 0f de 76 c1 89 62 97 40 a6 33 a4 bd d6 8c 82 40
       -15.429214 4.730778 -0.08017664 4.079692
000270 8f 9f 8a c1 f2 db 4b 3d af 5f 9d 3d be a6 ad 3c
       -17.32791 0.049770303 0.07684266 0.021197673
000280 f9 d1 2c bf a3 e3 97 40 24 cb 92 bd 5f bf dd bc
       -0.6750789 4.7465377 -0.07167652 -0.027068792
000290 2c dc ff 3c f0 34 ac c1 a2 60 7a c1 27 de 89 bc
       0.031232916 -21.525848 -15.648592 -0.016829563
0002a0 b6 d1 bb bd 4a 3b 11 be e9 bf a5 40 a7 4b 9d bd
       -0.091708586 -0.14182773 5.1796765 -0.07680445
0002b0 12 cf 88 40 9c 51 5e 3c 5e 2c 95 40 ca c9 33 3d
       4.275277 0.013569262 4.661666 0.043893613
0002c0 0b 5a 9f 3c 39 b4 98 bb 7b ea 1b 3d a9 ba 14 be
       0.019452116 -0.004660156 0.038065415 -0.1452433
0002d0 f1 5c a0 bc 63 e6 ab 40 e0 ad 82 bd 12 9e 6d be
       -0.019575568 5.3718734 -0.0638082 -0.2320483
0002e0 13 27 f1 3b fb d3 56 3d ab 71 b1 40 49 26 65 be
       0.0073593943 0.052448254 5.5451255 -0.22377886
0002f0 f3 b1 4e be 8d 0d 19 be 54 5c 93 bd 77 85 ba 40
       -0.2018507 -0.14946575 -0.071953446 5.828792
000300 e5 83 83 3d ed 7c 5b 3d 76 00 81 3c d7 07 7b c1
       0.06421641 0.053585935 0.01574729 -15.689414
000310 54 e6 9c bd 50 0a 83 be f1 2e 9a bd f1 ed 12 be
       -0.07661119 -0.25593805 -0.075284846 -0.1434858
000320 1c 31 09 be 92 43 00 bd 97 6e 5e bd 4e c3 1b c1
       -0.1339764 -0.03131444 -0.054304685 -9.735182
000330 52 81 ae bd a3 6b eb 3c 4a a8 2d 3d 1c dd cd bb
       -0.0852076 0.028737849 0.04239682 -0.006282462
000340 24 b5 37 3d 4a 74 c3 b9 2b 5c e3 bc 2d fa aa 40
       0.044850484 -0.0003727994 -0.02775391 5.343039
000350 85 20 1f be 92 e8 1c 3c 29 e6 85 bd f1 d3 b5 40
       -0.15539749 0.009576933 -0.0653804 5.6821218
000360 8c 9f 96 c1 e0 07 c3 bf 83 fa 2f be 1d 80 60 3d
       -18.827904 -1.5236778 -0.17185406 0.05480968
000370 0b 41 a1 40 94 12 f5 bb d5 4d bc 3c 8d 4c 46 be
       5.03919 -0.0074790213 0.022986332 -0.1936514
000380 a2 d2 a4 bd 60 ba 45 3c 1f 35 1c c0 8b a5 be bd
       -0.080479875 0.012068361 -2.4407423 -0.093089186
000390 d5 0e 6e 3d a7 8e 9a 40 5b 19 59 be c2 e9 df bd
       0.058119614 4.8299136 -0.21201079 -0.10933258
0003a0 8d cb 1d bc 1f 05 6f bd f6 13 18 3d fd a8 94 bd
       -0.00963105 -0.058354493 0.03712841 -0.072587945
0003b0 41 33 7a be 85 2a 13 c0 23 ed 37 3c 95 0a 83 bc
       -0.24433614 -2.2994702 0.011225971 -0.015996257
0003c0 ae c4 34 3d 4a 22 ed 3c 35 05 05 be 6a a3 38 bd
       0.04413288 0.028947014 -0.12990268 -0.04507772
0003d0 5f 35 43 be d2 c1 56 be 75 68 ac bb 22 06 dd bd
       -0.19063328 -0.20972374 -0.0052614757 -0.10792185
0003e0 b8 02 8b 40 2d d4 63 3d 7e f0 a2 bd 2b fd 80 3d
       4.344082 0.05562227 -0.079560265 0.06298288
0003f0 3a 95 bb bd 62 4e 4d 3d ad 8b 3f c1 3d 98 ad c1
       -0.09159322 0.05012358 -11.971601 -21.699335

network.3.bias f4 [41]
000000 f1 d3 02 bf cd 9b 1f 3b 36 c4 00 3d b2 60 b9 3d
       -0.51104647 0.002435434 0.03143712 0.09051646
000010 ec 3d 85 bd 28 a9 7f 3d fe 42 be 3d 04 bc 00 3d
       -0.06505951 0.06241718 0.092901215 0.031429306
000020 74 41 80 bd 0e 95 78 3d 9c 46 41 bd 8d c9 be bd
       -0.06262484 0.060689025 -0.04718648 -0.093157865
000030 ad 29 9d bc 30 fe 72 3d 5c 82 92 bd 47 b0 d6 3d
       -0.019184912 0.059324443 -0.0715377 0.10482841
000040 ea 48 c9 3d 8c cf 49 3e 87 2a 22 3e 61 42 3f 3e
       0.098283604 0.19708079 0.15836535 0.18677665
000050 39 79 45 3d f5 34 e6 3d 9d be 0b 3e ed b0 82 3e
       0.04821131 0.112405695 0.13646932 0.2552561
000060 55 3a 58 3e 66 5d 47 3e ac e8 8c 3d 66 bd ff 3d
       0.21116002 0.19469222 0.06880316 0.12487297
000070 b4 1c aa 3d 3e 01 86 3e c5 b8 25 3e 48 07 54 3e
       0.08306256 0.26172823 0.16183765 0.20705903
000080 d3 d9 85 3e fc 29 27 3e c0 83 69 3e 51 b8 56 3e
       0.2614275 0.1632461 0.22804165 0.20968749
000090 79 a7 8a bb e9 6d f0 bd 20 8d f7 bd 4e 88 e7 be
       -0.00423139 -0.11739714 -0.12087464 -0.4522118
0000a0 d3 8d 92 bf
       -1.1449531
