code/best_nn_model.pt (torch, 919837 bytes, 6 tensors)

model.0.weight f4 [512, 157]
0.16836806 -0.046421178 0.044053305 -0.051380664 0.13427226 -0.022279376 0.060167726 0.07074329
0.03041042 -0.01650363 -0.10551689 -0.053937506 -0.11134925 -0.1011544 0.003401196 -0.11590071
-0.025913564 -0.117155015 -0.03847923 -0.008078401 0.08756303 0.06129704 -0.15036416 0.06745926
0.27352506 -0.017509323 0.006473738 0.19967735 0.07281765 0.08113079 -0.03182915 0.059803475
-0.07003119 -0.0293277 0.026763981 -0.052325014 -0.04220478 -0.07844197 0.07421761 -0.15307854
0.06818986 -0.14228016 -0.12371346 -0.07634174 -0.18271823 0.055954695 0.015793283 0.09922037
0.070707306 -0.07083393 0.020639824 -0.09090072 -0.093689635 0.06340509 0.1697703 -0.04798324
0.112277545 0.0626379 -0.0040715174 0.11526912 0.07542745 0.18073277 -0.05817592 0.0420875
0.24200578 0.046231497 -0.107227504 0.10730175 -0.075570464 -0.03244243 -0.1170612 -0.05578963
0.19105625 -0.11734134 0.05548735 0.033325434 0.1570978 0.055381335 0.0034185203 -0.011762435
0.10891038 0.12245401 -0.09196114 0.054777093 0.108947456 -0.015014129 0.106100224 -0.21302022
0.055942938 -0.023084247 -0.06983275 0.09962889 0.036553014 -0.08801846 0.038324863 -0.07492234
-0.1639261 0.20960791 -0.09960974 -0.026357843 0.008062413 -0.13424462 0.033058397 -0.0742029
-0.08071858 0.1633127 -0.059190713 -0.105506815 -0.14259708 0.010305593 0.12294327 0.101312764
-0.1107381 -0.03260402 0.018102027 0.09737022 -0.012165062 0.12418362 -0.03076973 0.094899334
0.116068125 0.08686166 -0.044953015 -0.21933314 0.014458477 -0.15999864 -0.03081081 -0.07005765
-0.05427324 0.122272916 0.06484688 -0.017230596 -0.03265611 -0.059788685 0.061737582 0.041520398
0.025452586 -0.06446573 -0.11851737 -0.0854038 -0.19085829 0.016205167 -0.23158416 0.08420849
0.0018111084 -0.11278912 -0.07440899 0.085839316 0.010735185 -0.057452556 0.0957284 0.058706053
0.18985601 -0.02544585 0.1255951 -0.05566077 0.061147 0.11741656 0.0879339 -0.013202454
0.06762237 -0.018853983 -0.0068319747 0.08321668 0.12612385 0.031878985 -0.16541429 0.08010645
0.14587441 -0.113037795 -0.056530856 0.04877932 -0.06971333 -0.22076716 0.0047009164 0.2580163
-0.16872422 -0.07323865 -0.06803417 -0.032434717 -0.05841224 -0.05627987 0.033788774 -0.09874987
0.2198007 -0.07233901 -0.052825395 -0.029251114 -0.13012007 0.0713183 0.06876328 -0.12819602
-0.035693757 -0.08216666 -0.0016043539 -0.068690084 -0.21970269 0.10917779 0.32042104 0.0070180246
-0.03485492 0.03287301 0.13098565 -0.12964357 0.08592127 0.07195419 -0.0064981896 -0.013366125
-0.0011160796 0.17760399 -0.06792444 -0.02693685 -0.10804014 -0.030275721 0.084342554 0.027917912
0.033737715 -0.19231518 -0.09940565 0.13463694 -0.12284638 0.02010561 -0.04065204 0.0131238
-0.07523236 0.13933583 0.13420855 -0.014810495 -0.028537577 0.10463458 0.10922231 -0.23284504
0.18618618 -0.08913572 0.007105527 0.049991425 -0.0767107 -0.0377041 -0.02142613 -0.063167505
-0.016608361 -0.016982088 -0.019968987 -0.19875781 0.05796457 -0.025681363 0.047176193 -0.031681485
0.015493809 0.07248394 -0.029722996 0.06739797 0.036494665 -0.100504845 0.18848357 0.006676857
00000000: ad68 2c3e 2224 3ebd 3d71 343d 8874 52bd
00000010: ab7e 093e 3d83 b6bc 6f72 763d dce1 903d
00000020: 461f f93c 9f32 87bc 3d19 d8bd 93ed 5cbd
00000030: 130b e4bd 0a2a cfbd 9ae6 5e3b 5a5d edbd
00000040: af48 d4bc f8ee efbd 669c 1dbd 455b 04bc
00000050: 3f54 b33d 9b12 7b3d 10f9 19be 1528 8a3d
00000060: 7a0b 8c3e b66f 8fbc a621 d43b 3878 4c3e
00000070: 6c21 953d e627 a63d 485f 02bd 7df4 743d
00000080: 836c 8fbd a540 f0bc 2340 db3c c152 56bd
00000090: ebde 2cbd 2fa6 a0bd 67ff 973d 9fc0 1cbe
000000a0: 20a7 8b3d e4b1 11be 7c5d fdbd 0f59 9cbd
000000b0: 7d1a 3bbe c030 653d ea60 813c 0d34 cb3d
000000c0: fece 903d 6111 91bd d914 a93c 282a babd
000000d0: 5ae0 bfbd 87da 813d 44d8 2d3e 138a 44bd
000000e0: c5f1 e53d 4d48 803d 5d6a 85bb 3712 ec3d
000000f0: b579 9a3d 0312 393e e049 6ebd f163 2c3d
00000100: 5dd0 773e 3d5d 3d3d 189a dbbd 05c1 db3d
00000110: b0c4 9abd 5ae2 04bd c8bd efbd ab83 64bd
00000120: 40a4 433e a850 f0bd b446 633d 4080 083d
00000130: 3fde 203e 8ad7 623d 4109 603b 3ab7 40bc
00000140: 680c df3d 2bc9 fa3d 1f56 bcbd f25d 603d
00000150: d81f df3d d2fd 75bc 134b d93d f921 5abe
00000160: 6c24 653d 2d1b bdbc 7904 8fbd 3b0a cc3d
00000170: 9db8 153d 0643 b4bd 88fa 1c3d e270 99bd
00000180: 3edc 27be 75a3 563e 3100 ccbd 67ec d7bc
00000190: 3618 043c 6c77 09be 3e68 073d b1f7 97bd
000001a0: c84f a5bd 723b 273e f671 72bd f513 d8bd
000001b0: f804 12be cad8 283c aec9 fb3d 117d cf3d
000001c0: a8ca e2bd cb8b 05bd b44a 943c 0a6a c73d
000001d0: f84f 47bc fb53 fe3d cd10 fcbc 955a c23d
000001e0: 20b5 ed3d 87e4 b13d a720 38bd de98 60be
000001f0: 3fe3 6c3c afd6 23be f466 fcbc 637a 8fbd
00000200: 9e4d 5ebd 396a fa3d 71ce 843d 2e27 8dbc
00000210: 6ac2 05bd fbe4 74bd 8ce0 7c3d 4b11 2a3d
00000220: f181 d03c 9c06 84bd 3cb9 f2bd 30e8 aebd
00000230: 5b70 43be b3c0 843c 6624 6dbe 8075 ac3d
00000240: b762 ed3a fbfd e6bd be63 98bd 86cc af3d
00000250: a1e2 2f3c 5f53 6bbd 400d c43d c275 703d
00000260: 9d69 423e d173 d0bc 009c 003e 8cfc 63bd
00000270: 4775 7a3d 1878 f03d b016 b43d 1b4f 58bc
00000280: 997d 8a3d ab73 9abc c2de dfbb 826d aa3d
00000290: 9c26 013e 8a93 023d 5d62 29be da0e a43d
000002a0: 1a60 153e 5c80 e7bd e68c 67bd d3cc 473d
000002b0: ddc5 8ebd c910 62be 250a 9a3b b61a 843e
000002c0: 0bc6 2cbe 25fe 95bd 8055 8bbd 44da 04bd
000002d0: ac41 6fbd b985 66bd 1966 0a3d 5f3d cabd
000002e0: 6f13 613e 7a26 94bd 715f 58bd 08a0 efbc
000002f0: 323e 05be 540f 923d c3d3 8c3d d145 03be
00000300: 9e33 12bd fe46 a8bd 2f49 d2ba 63ad 8cbd
00000310: bef9 60be 9b98 df3d 3a0e a43e 75f7 e53b
00000320: 08c4 0ebd d9a5 063d 1a21 063e 49c1 04be
00000330: 7ef7 af3d b85c 933d c4ee d4bb 97fd 5abc
00000340: 6b49 92ba d2dd 353e f81b 8bbd abaa dcbc
00000350: 2644 ddbd ca04 f8bc cabb ac3d 1bb4 e43c
00000360: 8f30 0a3d 45ee 44be 3095 cbbd 44de 093e
00000370: e296 fbbd 85b4 a43c c182 26bd 3505 573c
00000380: 6c13 9abd 0dae 0e3e f76d 093e b8a7 72bc
00000390: a3c7 e9bc a84a d63d f2af df3d ee6e 6ebe
000003a0: 97a7 3e3e ca8c b6bd 7bd5 e83b cfc3 4c3d
000003b0: 801a 9dbd 9d6f 1abd da85 afbc f75d 81bd
000003c0: 420e 88bc 051e 8bbc 0096 a3bc 2b87 4bbe
000003d0: 426c 6d3d b961 d2bc d33b 413d 72c4 01bd
000003e0: bfd9 7d3c 7672 943d a47d f3bc f207 8a3d
000003f0: 6e7b 153d 7cd5 cdbd d601 413e 89c9 da3b

model.0.bias f4 [512]
-0.0010619722 0.122010864 0.071376905 0.030165562 0.061506394 0.03159957 0.14858624 0.07324167
0.04677921 0.09809218 0.049503237 0.010441284 0.048607666 0.014714204 0.12997967 0.053444043
0.018026732 0.02461628 0.052369166 0.11293721 0.025737975 0.0594473 0.15113509 0.036035348
0.09536538 0.096457936 0.15746033 0.017504048 0.08883696 0.068757735 0.019799868 -0.018935585
0.12887575 0.17321533 0.027480362 0.09664453 0.08476075 0.13577752 0.010081457 0.06475194
0.078307144 -0.020447908 -0.09226638 0.056422967 0.07706204 -0.010924635 0.05403759 0.013200959
0.019418567 0.11503413 0.15831625 0.1566685 0.09886842 -0.04711377 0.04155834 0.0880733
-0.004379727 0.054302257 0.0668806 0.11240475 -0.058658525 0.14646086 0.19174121 0.0042273644
-0.026832739 0.046843186 -0.021732274 0.06306646 0.022264566 0.030729573 0.15076934 0.105927646
0.102709636 0.014607484 -0.016165398 -0.0015246121 0.11683734 -0.018290173 0.15154116 0.0071067386
0.12169049 0.15421137 0.05508227 0.04086878 0.050552517 0.107589535 0.007716599 0.050100133
0.04162663 0.02872118 0.12403762 0.055360198 -0.09909846 0.07603049 0.022252046 0.012419821
0.049533878 0.06735026 -0.07441169 0.12428834 -0.04566373 -0.03527995 0.036581792 0.012148893
0.07733061 0.0023297225 0.040843092 0.03398224 0.047748547 0.004980085 0.10377731 0.010426725
-0.009435476 -0.027859636 0.13323922 0.06417334 0.15526074 -0.0031265323 0.070414096 0.06973457
0.15231043 0.11469112 0.093913846 0.0646054 0.09609236 0.11925593 0.10987614 0.095958084
0.0029263927 0.04975189 0.044529665 0.06929154 -0.008979837 0.16822024 0.016172057 0.06522836
0.031741284 0.07795368 -0.0018894762 0.036196094 -0.02901172 0.0056289276 0.050826695 0.092203245
0.07093808 0.039401192 0.12361009 0.0060552047 0.039608136 -0.017479144 -0.014782461 -0.023682484
-0.0064097573 0.12623222 0.03092403 -0.011969232 0.08521071 0.0051251724 0.13825913 -0.04241022
0.016967507 0.024560744 0.09250125 0.0016025638 0.15827806 0.02183138 0.0028532145 -0.06356415
0.14344722 0.0105232345 0.15501687 0.08002077 0.1267504 0.014896921 -0.0006229534 0.005413637
0.08351004 0.0887108 0.017524665 0.010775931 0.031810254 0.10071862 0.015864056 -0.049245145
-0.008425978 -0.02806943 0.007593542 0.15279657 0.12801579 0.09253878 0.045213677 0.06408144
-0.022344 0.022357913 0.07521839 0.012370848 0.013697233 0.067143045 -0.062236436 0.0051402734
0.062091816 0.07804837 0.09826359 0.11410707 0.032017913 0.08184838 -0.05078838 0.120471865
0.07922407 0.048311543 0.03363956 0.014090198 -0.0070593497 0.067401595 0.05831812 -0.08241482
-0.01204638 0.07693565 0.1280357 0.066635594 0.08363936 -0.013139266 0.10796322 0.07327077
0.08899679 0.04816872 -0.050560813 0.06049631 0.08008397 0.022259396 0.07723583 0.1345149
0.113806844 -0.048036154 -0.031245546 0.09395536 0.058688432 0.066051565 0.055006616 -0.046556555
6.8792855e-05 0.12692961 0.09404858 0.03882176 0.031465303 0.03229417 0.032270487 0.08959089
0.09066662 0.14476784 0.026463896 0.100239225 0.030729724 0.03136135 0.07498673 0.12753744
00000000: e031 8bba d5e0 f93d 0e2e 923d c51d f73c
00000010: 21ee 7b3d 8d6e 013d fe26 183e bbff 953d
00000020: 8f9b 3f3d 8ee4 c83d e8c3 4a3d eb11 2b3c
00000030: d518 473d d813 713c 6419 053e 24e8 5a3d
00000040: ccac 933c 15a8 c93c 0d81 563d a04b e73d
00000050: 72d8 d23c 037f 733d 28c3 1a3e cd99 133d
00000060: ed4e c33d bd8b c53d 483d 213e a664 8f3c
00000070: 27f0 b53d dbd0 8c3d 5533 a23c cd1e 9bbc
00000080: 01f8 033e 5c5f 313e 7f1e e13c 91ed c53d
00000090: 0b97 ad3d 4309 0b3e b22c 253c aa9c 843d
000000a0: 7f5f a03d 5f82 a7bc 28f6 bcbd c51b 673d
000000b0: b4d2 9d3d 3efd 32bc 8556 5d3d d648 583c
000000c0: b013 9f3c 0497 eb3d a81d 223e b56d 203e
000000d0: 877b ca3d 5efa 40bd 1439 2a3d c65f b43d
000000e0: d083 8fbb 0b6c 5e3d b2f8 883d 7634 e63d
000000f0: ec43 70bd d6f9 153e cf57 443e b485 8a3b
00000100: 55d0 dbbc a4de 3f3d e207 b2bc fd28 813d
00000110: 2e64 b63c 96bc fb3c 4763 1a3e 98f0 d83d
00000120: 6e59 d23d 3b54 6f3c 4c6d 84bc 7ed5 c7ba
00000130: 6a48 ef3d 46d5 95bc 9b2d 1b3e a5df e83b
00000140: dd38 f93d 96e9 1d3e f29d 613d 0666 273d
00000150: 2810 4f3d e757 dc3d 86db fc3b cc35 4d3d
00000160: af80 2a3d ae48 eb3c 7007 fe3d 60c1 623d
00000170: 22f4 cabd e0b5 9b3d ec49 b63c 817c 4b3c
00000180: 09e4 4a3d efee 893d 2865 98bd e38a fe3d
00000190: e409 3bbd b581 10bd cad6 153d 270c 473c
000001a0: 835f 9e3d 42ae 183b 164b 273d f630 0b3d
000001b0: fb93 433d fb2f a33b 3389 d43d dbd4 2a3c
000001c0: 4197 1abc e439 e4bc dd6f 083e 506d 833d
000001d0: acfc 1e3e 82e6 4cbb 4435 903d 00d1 8e3d
000001e0: 44f7 1b3e 2ee3 ea3d e755 c03d d64f 843d
000001f0: 12cc c43d 743c f43d be06 e13d ac85 c43d
00000200: b9c8 3f3b a3c8 4b3d bd64 363d b9e8 8d3d
00000210: 2b20 13bc ed41 2c3e 437b 843c 7296 853d
00000220: 2603 023d 2ea6 9f3d 4da8 f7ba 5b42 143d
00000230: fda9 edbc de72 b83b a72f 503d 0ed5 bc3d
00000240: fc47 913d 2563 213d 4927 fd3d bd6a c63b
00000250: 243c 223d 6c30 8fbc 2332 72bc c501 c2bc
00000260: f108 d2bb 0543 013e 6454 fd3c 991a 44bc
00000270: f482 ae3d 10f1 a73b cd93 0d3e 57b6 2dbd
00000280: 71ff 8a3c 9d33 c93c 4c71 bd3d 1e0d d23a
00000290: a513 223e b9d7 b23c fffc 3a3b ec2d 82bd
000002a0: d4e3 123e a569 2c3c bebc 1e3e eee1 a33d
000002b0: dbca 013e 3712 743c b24d 23ba e164 b13b
000002c0: 5007 ab3d 02ae b53d e38f 8f3c 888d 303c
000002d0: 784b 023d 9045 ce3d 56f5 813c 47b5 49bd
000002e0: 1d0d 0abc dcf1 e5bc 3fd3 f83b b476 1c3e
000002f0: 9216 033e f984 bd3d fa31 393d 213d 833d
00000300: c40a b7bc f127 b73c 190c 9a3d 19af 4a3c
00000310: 5c6a 603c 4b82 893d a2eb 7ebd bd6f a83b
00000320: fd53 7e3d d3d7 9f3d 6c3e c93d f8b0 e93d
00000330: 3725 033d 20a0 a73d 7a07 50bd f4b9 f63d
00000340: 3b40 a23d 53e2 453d a3c9 093d 93da 663c
00000350: 1e52 e7bb d909 8a3d fbde 6e3d 1ac9 a8bd
00000360: 2e5e 45bc 7090 9d3d ca1b 033e 3e78 883d
00000370: 1d4b ab3d 1346 57bc d21b dd3d fc0e 963d
00000380: f343 b63d 904c 453d db18 4fbd fbca 773d
00000390: 1103 a43d 5659 b63c d22d 9e3d 46be 093e
000003a0: 9013 e93d 8fc1 44bd a9f6 ffbc ab6b c03d
000003b0: 4863 703d 0b46 873d 9e4e 613d 16b2 3ebd
000003c0: e244 9038 d6f9 013e 8b9c c03d 9103 1f3d
000003d0: c3e1 003d e446 043d 0f2e 043d 6e7b b73d
000003e0: 6caf b93d 053e 143e d0ca d83c 394a cd3d
000003f0: e7bc fb3c c274 003d a592 993d 2d99 023e

model.3.weight f4 [256, 512]
-0.11792446 -0.06855034 -0.13502772 0.083408535 0.041352868 0.024000093 0.026156856 0.1192149
-0.037538454 -0.09407508 0.0072228042 0.031771433 -0.0033721614 0.03738979 -0.03686651 0.037838176
0.0045411526 0.123992056 0.056971908 -0.008041522 0.034824308 0.12608662 0.017168839 0.05895391
-0.015553599 0.05039225 0.021122374 -0.15077151 0.18667339 -0.05518972 0.043932162 -0.05462473
-0.003628283 -0.1378322 0.18580657 0.09713154 0.03676447 0.08318909 -0.064124085 -0.0061836354
-0.018438883 -0.011504188 -0.06678061 -0.10236829 0.03105302 -0.08130904 -0.0011362366 0.10098868
-0.033082623 -0.0070408434 0.060498238 0.08217412 0.029205749 -0.1020973 -0.012456048 0.014141023
-0.03093409 -0.14703535 0.0548699 0.045489904 -0.011208346 0.09128277 0.11583783 0.016146155
0.040729597 0.09443123 0.02275113 -0.07635889 -0.01932586 0.06800289 0.016389223 -0.02528248
0.086005196 0.12823196 0.10092706 0.012591318 0.049540132 -0.013080906 0.10504716 -0.04250231
0.085601345 0.14241642 0.14528394 -0.119283155 0.12670897 0.010112815 0.0064347694 -0.023021549
-0.112333745 0.053113792 0.043010328 -0.015257284 0.05234346 0.020029489 -0.10396631 -0.043984823
0.08070841 0.07664922 0.0015154021 0.017921653 0.025510786 -0.16427165 0.0025832646 -0.030205674
0.10068605 -0.012991882 -0.020182326 -0.13459258 -0.084813975 0.014342403 0.03972318 -0.07040113
-0.03810994 0.037534148 0.05596317 0.006524918 0.053169277 0.0065622604 -0.09889307 0.1142601
0.007065246 0.034340918 -0.11078689 0.02285814 0.10454429 -0.016431142 0.15412861 0.0388213
0.10591087 -0.052392133 -0.0897209 0.103939414 -0.09187505 0.13581856 9.041325e-05 -0.03066882
-0.12340339 -0.01904524 0.018017823 -0.054879855 -0.022114541 -0.090601064 0.17544931 0.03228038
0.15419745 -0.040332798 0.08382288 0.08425239 -0.011650931 0.03321907 0.10246316 -0.13480379
0.058361847 0.119589165 -0.06015761 0.04440753 -0.006498778 0.01720976 0.103583336 -0.035861824
0.06458893 0.13577116 0.09763375 -0.0708479 0.039891534 -0.0069016083 -0.0054267235 -0.17519374
0.032064337 0.09822688 0.03016168 -0.12602204 -0.07435605 0.01114666 -0.011761878 -0.16297217
0.1601218 -0.0008340217 0.064058565 -0.038720943 0.08645421 0.029850218 -0.06392447 -0.06729835
0.11749692 0.059061814 0.093769826 -0.015320704 0.005284344 0.05311993 -0.096687794 -0.033713166
0.06657378 0.11344231 0.01239128 -0.01782976 -0.040502973 0.028408635 -0.106495395 0.010528028
0.19280854 0.04858414 0.011793174 -0.11314318 -0.1235418 0.11256135 -0.06661629 0.07255935
0.031967435 0.20462741 -0.19926587 0.16697182 0.028235001 0.0783401 0.003998746 0.14543556
0.03269275 0.17879179 0.09221248 0.042521052 0.07511283 0.020656344 0.050707925 0.01199782
0.17739783 0.050866265 0.023740664 0.113767035 -0.060455974 -0.041014954 0.02290753 -0.035535153
-0.020227106 -0.15865472 -0.09301721 -0.116547756 -0.06576362 0.06568067 0.030472564 -0.056148924
0.14969155 0.0029780236 -0.1308648 0.05519213 0.06999584 0.045541953 0.090679936 0.010487451
0.053683992 0.09565314 0.049116854 0.016652886 0.022358168 -0.030771023 0.017426763 0.13415018
00000000: 6182 f1bd 1f64 8cbd b544 0abe 18d2 aa3d
00000010: a061 293d d89b c43c e746 d63c f126 f43d
00000020: ecc1 19bd 6faa c0bd 46ad ec3b c322 023d
00000030: 7bff 5cbb 0926 193d 5601 17bd 34fc 1a3d
00000040: f3cd 943b 8cef fd3d 605b 693d 97c0 03bc
00000050: efa3 0e3d da1c 013e aaa5 8c3c a879 713d
00000060: 86d4 7ebc 1b68 4e3d d408 ad3c d963 1abe
00000070: 4f27 3f3e 9e0e 62bd 36f2 333d 2ebe 5fbd
00000080: 7dc8 6dbb e223 0dbe 1444 3e3e e7ec c63d
00000090: 5796 163d 0b5f aa3d 7d53 83bd 18a0 cabb
000000a0: 240d 97bc 107c 3cbc 46c4 88bd 77a6 d1bd
000000b0: e762 fe3c 5b85 a6bd c6ed 94ba 27d3 ce3d
000000c0: a581 07bd e0b6 e6bb 00cd 773d e84a a83d
000000d0: e540 ef3c 6418 d1bd 7414 4cbc c0af 673c
000000e0: 7d69 fdbc 6f90 16be 43bf 603d 9f53 3a3d
000000f0: 36a3 37bc 76f2 ba3d 623c ed3d f144 843c
00000100: 14d4 263d 2965 c13d 9460 ba3c 0d62 9cbd
00000110: 4451 9ebc 1945 8b3d b142 863c 341d cfbc
00000120: 7e23 b03d 3d4f 033e d9b2 ce3d d14b 4e3c
00000130: 98ea 4a3d 4c51 56bc f722 d73d e716 2ebd
00000140: c24f af3d 9cd5 113e 50c5 143e ba4a f4bd
00000150: ffbf 013e 38b0 253c c2da d23b b097 bcbc
00000160: 3c0f e6bd d98d 593d 992b 303d b0f9 79bc
00000170: 1966 563d e214 a43c 4aec d4bd 6e29 34bd
00000180: 734a a53d 44fa 9c3d 75a0 c63a 6ed0 923c
00000190: fffb d03c d436 28be fd4b 293b e471 f7bc
000001a0: 7d34 ce3d e7db 54bc 6855 a5bc a3d2 09be
000001b0: f3b2 adbd 66fc 6a3c c6b4 223d 782e 90bd
000001c0: 2b19 1cbd 68bd 193d a339 653d fbce d53b
000001d0: 07c8 593d 3b08 d73b 7388 cabd 3301 ea3d
000001e0: 9483 e73b 10a9 0c3d 3de4 e2bd fe40 bb3c
000001f0: 511b d63d 9a9a 86bc e4d3 1d3e 1503 1f3d
00000200: cce7 d83d 2299 56bd 97bf b7bd 30de d43d
00000210: fc28 bcbd 0514 0b3e 3e9c bd38 2d3d fbbc
00000220: ebba fcbd c304 9cbc 1d9a 933c b3c9 60bd
00000230: 8e29 b5bc 0d8d b9bd fca8 333e 6f38 043d
00000240: f0e5 1d3e 0134 25bd 55ab ab3d 848c ac3d
00000250: 8ce3 3ebc b810 083d 35d8 d13d 010a 0abe
00000260: d50c 6f3d 2aeb f43d d367 76bd ace4 353d
00000270: b3f3 d4bb 7cfb 8c3c 8023 d43d d9e3 12bd
00000280: 3347 843d 9807 0b3e 34f4 c73d b418 91bd
00000290: 4e65 233d e326 e2bb a8d2 b1bb fd65 33be
000002a0: e555 033d 2d2b c93d a115 f73c ec0b 01be
000002b0: fc47 98bd 7ba0 363c e4b4 40bc 2de2 26be
000002c0: f8f6 233e 40a2 5aba 2331 833d da99 1ebd
000002d0: e80e b13d 7288 f43c d5ea 82bd b8d3 89bd
000002e0: 3aa2 f03d cdea 713d 650a c03d b103 7bbc
000002f0: 4a28 ad3b 4994 593d 4004 c6bd d116 0abd
00000300: d557 883d 7154 e83d cc04 4b3c b80f 92bc
00000310: 72e6 25bd 3ab9 e83c 421a dabd c07d 2c3c
00000320: 9a6f 453e 2a00 473d 2838 413c 9db7 e7bd
00000330: 7c03 fdbd 9186 e63d 1f6e 88bd ff99 943d
00000340: 49f0 023d d989 513e 5a0c 4cbe a9fa 2a3e
00000350: 174d e73c c670 a03d ea07 833b 0fed 143e
00000360: d5e8 053d 3215 373e e6d9 bc3d 8e2a 2e3d
00000370: c1d4 993d 7e37 a93c 1db3 4f3d 8192 443c
00000380: c7a7 353e 2559 503d c87b c23c b1fe e83d
00000390: afa0 77bd 4cff 27bd 93a8 bb3c 4f8d 11bd
000003a0: 51b3 a5bc 6276 22be cf7f bebd 97b0 eebd
000003b0: 14af 86bd 9683 863d 99a1 f93c 6afc 65bd
000003c0: be48 193e f22a 433b 6c01 06be 2511 623d
000003d0: fb59 8f3d 338a 3a3d 67b6 b93d 8fd3 2b3c
000003e0: bfe3 5b3d cbe5 c33d c12e 493d a26b 883c
000003f0: 7a28 b73c 8313 fcbc 92c2 8e3c aa5e 093e

model.3.bias f4 [256]
0.09666044 -0.08991414 0.028583502 -0.022821195 -0.063532755 -0.016382933 0.034397095 0.058478575
0.019877538 -0.04098262 0.028271586 -0.038679726 -0.026193807 0.07038407 -0.01909577 -0.068825126
0.049965627 0.022203455 0.04238401 0.003463811 0.01247088 0.033047274 -0.031067297 -0.05999131
-0.03302888 0.0033099093 0.0073110336 -0.011152657 -0.068280555 0.04598506 0.011516636 -0.027727187
-0.01819609 -0.027212627 -0.0153116975 -0.00036452484 0.08899262 0.046371568 0.055427898 0.071410626
-0.013825565 -0.019853432 0.0037702052 0.045236755 -0.0025397588 0.020889677 0.0362272 -0.00052591646
0.0018722537 -0.0722251 0.03175562 0.08859131 -0.010784318 0.06839365 0.05160515 0.018828241
0.10401787 0.0043241815 0.025426148 0.033834927 -0.0078069097 0.0069496715 -0.030061798 0.012695557
-0.07315163 -0.0073882537 -0.036663685 0.01455904 -0.079127595 -0.011501747 0.017307984 0.054301046
-0.051106744 0.031249136 0.04827797 -0.025188332 0.060941085 -0.06893541 -0.0022737281 -0.031149726
-0.046316203 0.0035524513 -0.013733474 0.018521694 0.035921637 0.109692946 -0.05399258 0.0022165515
-0.017248457 -0.0008740445 -0.008211803 0.0023577681 -0.008268331 -0.03754847 0.016040873 0.07029883
-0.018933974 -0.0012787059 -0.0077682673 0.036243934 -0.0657069 -0.01390615 0.043491278 -0.022885658
-0.0013278052 -0.03271213 -0.026740512 0.0011259187 0.00034696283 0.08012269 0.11889709 0.029064506
0.044494666 0.0009586347 -0.05513267 0.023830459 0.033685185 0.002499206 -0.0013996286 0.04279026
0.011814024 -0.038203966 -0.03171369 0.0098599745 -0.0044823657 0.05129658 0.030924523 0.01777442
-0.011060885 0.05087461 0.0046518655 0.036852844 0.013183553 0.059072617 -0.0677316 -0.099796034
-0.0012977818 0.07178269 0.0437531 -0.034171518 -0.0019595576 0.021113247 0.02571866 -0.047895644
-0.0139717255 0.026276127 -0.030269219 0.026704775 -0.00462397 -0.020088777 0.014465984 -0.015944414
-0.011192633 -0.017940223 0.015265665 -0.0026680771 -0.0068967817 0.0128285205 0.0029870544 0.021495715
-0.06262433 0.003764831 -0.012464024 0.0025651325 0.06875033 0.031041844 -0.042494237 0.012855528
-0.0030251641 0.057787903 0.013167476 -0.009830397 0.005508073 -0.08596495 0.04626557 0.053231113
0.023847917 -0.017976636 0.020651292 -0.021681728 0.0804535 0.08248777 0.031661756 -0.009135952
-0.0026339218 -0.012777555 -0.041711368 -0.07418343 -0.03256201 0.0046907053 -0.06608771 -0.08084566
0.030073918 -0.011005402 -0.033514258 0.002847696 0.03877735 -0.015187353 -0.029113784 -0.029927883
0.038239114 0.010899167 -0.033353105 0.02195089 -0.01692456 0.067881845 -0.051052947 0.057444014
0.09736768 0.0003964114 0.0018098938 0.01312585 0.014360033 0.07277608 0.07565091 0.036871266
0.10091366 0.057069134 -0.056238923 0.050035544 0.0018037772 0.013153888 0.0048377444 0.11853092
0.0049350853 0.037969686 0.08311125 0.064249724 0.01782574 -0.031040797 0.116829515 -0.0548402
-0.025391104 0.00454802 0.087423414 -0.011561157 -0.03259296 0.12057838 -0.007671995 0.02327005
-0.036323294 0.06780237 -0.031571995 0.02596812 0.05783023 0.033839077 0.007048333 0.024125686
0.08113938 -0.020887958 0.044227716 0.07760169 -0.035193883 -0.040169064 -0.05377481 -0.06267971
00000000: e9f5 c53d e824 b8bd f327 ea3c 84f3 babc
00000010: 761d 82bd 8035 86bc f8e3 0c3d 3b87 6f3d
00000020: 38d6 a23c 64dd 27bd d099 e73c a26e 1ebd
00000030: 6594 d6bc 8625 903d bb6e 9cbc 30f4 8cbd
00000040: c2a8 4c3d 05e4 b53c db9a 2d3d 1b01 633b
00000050: a952 4c3c 945c 073d d880 febc 73b9 75bd
00000060: 4a49 07bd 10eb 583b 6591 ef3b a2b9 36bc
00000070: add6 8bbd d55a 3c3d 46b0 3c3c 2024 e3bc
00000080: f70f 95bc 04ed debc eadd 7abc b21d bfb9
00000090: c341 b63d 1df0 3d3d 5d08 633d bc3f 923d
000000a0: 9f84 62bc aaa3 a2bc 8c15 773b 2d4a 393d
000000b0: 1572 26bb d420 ab3c f962 143d a8dd 09ba
000000c0: 6966 f53a c1ea 93bd 2e12 023d 5c6f b53d
000000d0: b5b0 30bc f811 8c3d ec5f 533d af3d 9a3c
000000e0: 5207 d53d ddb1 8d3b 7f4a d03c 7e96 0a3d
000000f0: 1bd1 ffbb 12ba e33b 2944 f6bc 0701 503c
00000100: 86d0 95bd 2a19 f2bb a92c 16bd 0a89 6e3c
00000110: a60d a2bd d371 3cbc 79c9 8d3c c66a 5e3d
00000120: 4e55 51bd 30fe ff3c 1fbf 453d c357 cebc
00000130: 5c9d 793d 022e 8dbd d402 15bb b62d ffbc
00000140: 0fb6 3dbd 3ed0 683b 5d02 61bc cfba 973c
00000150: 9122 133d b2a6 e03d 5327 5dbd 9043 113b
00000160: a34c 8dbc 2220 65ba cc8a 06bc c984 1a3b
00000170: e577 07bc 6dcc 19bd 2668 833c d5f8 8f3d
00000180: 6c1b 9bbc 409a a7ba f38c febb 8574 143d
00000190: 5791 86bd 9fd6 63bc e923 323d b47a bbbc
000001a0: c009 aeba 28fd 05bd eb0e dbbc 9093 933a
000001b0: 90e8 b539 5d17 a43d 5180 f33d b018 ee3c
000001c0: 0a40 363d e34c 7b3a cbd2 61bd 1838 c33c
000001d0: 7af9 093d b8c9 233b be73 b7ba d744 2f3d
000001e0: 9c8f 413c c37b 1cbd 37e6 01bd bb8b 213c
000001f0: cfe0 92bb 5d1c 523d 6d55 fd3c a99b 913c
00000200: b738 35bc e561 503d ad6e 983b 02f3 163d
00000210: d4ff 573c 21f6 713d ddb6 8abd dd61 ccbd
00000220: 551a aaba ce02 933d 7336 333d 6ff7 0bbd
00000230: ec6b 00bb b0f5 ac3c f0af d23c 392e 44bd
00000240: aae9 64bc 0841 d73c 27f7 f7bc f9c3 da3c
00000250: ac84 97bb 3891 a4bc bc02 6d3c dc9d 82bc
00000260: 4e61 37bc 60f7 92bc d71c 7a3c e8da 2ebb
00000270: 66fe e1bb b72e 523c 75c2 433b c817 b03c
00000280: 2f41 80bd 62bb 763b e835 4cbc c81b 283b
00000290: f9cc 8c3d 774b fe3c 700e 2ebd fe9f 523c
000002a0: d541 46bb 02b3 6c3d 66bc 573c ac0f 21bc
000002b0: 117d b43b 640e b0bd f780 3d3d de08 5a3d
000002c0: b55c c33c bd43 93bc e62c a93c e19d b1bc
000002d0: cec4 a43d 59ef a83d c2af 013d f6ae 15bc
000002e0: e09d 2cbb f358 51bc 8ad9 2abd 7bed 97bd
000002f0: be5f 05bd 7db4 993b fe58 87bd 6992 a5bd
00000300: 945d f63c 0050 34bc 3f46 09bd 69a0 3a3b
00000310: 00d5 1e3d 60d4 78bc 0880 eebc 522b f5bc
00000320: 9ea0 1c3d 6b92 323c 449d 08bd 5ad2 b33c
00000330: 60a5 8abc a305 8b3d e51c 51bd 6a4a 6b3d
00000340: b568 c73d 70d5 cf39 f539 ed3a ce0d 573c
00000350: 5846 6b3c a00b 953d ddee 9a3d 5306 173d
00000360: d2ab ce3d 53c1 693d c95a 66bd 12f2 4c3d
00000370: b86c ec3a 6883 573c f185 9e3b 57c0 f23d
00000380: 7fb6 a13b 1a86 1b3d 3b36 aa3d 5c95 833d
00000390: 4907 923c 4549 febc 5044 ef3d 1ea0 60bd
000003a0: 0101 d0bc 8f07 953b 0c0b b33d 026b 3dbc
000003b0: 3280 05bd ccf1 f63d 5c65 fbbb d5a0 be3c
000003c0: bcc7 14bd f8db 8a3d a351 01bd 18bb d43c
000003d0: 64df 6c3d d89a 0a3d b4f5 e63b 3ba3 c53c
000003e0: 672c a63d 391d abbc 1f28 353d a3ed 9e3d
000003f0: 7627 10bd 5188 24bd fa42 5cbd 385e 80bd

model.6.weight f4 [61, 256]
0.053473905 0.037002176 -0.090974934 0.10121149 -0.1191654 -0.13988745 0.049076818 0.003625335
-0.13899274 -0.01797656 0.05549737 -0.21978562 -0.07269992 0.030332897 -0.21885572 0.04528725
-0.15353973 -0.20270194 0.019478638 -0.13111821 0.105201155 0.096675426 -0.010287967 -0.04577756
0.08683734 -0.02243036 0.018876806 0.110880084 0.14898811 0.0030950236 0.106222935 -0.1295633
-0.0004244388 -0.027306814 -0.111087635 -0.0040157246 0.05275695 0.07403239 0.025384758 -0.10140797
0.07682452 -0.15612528 -0.13471563 -0.079959124 0.035708707 -0.09005485 -0.011124293 -0.093999945
-0.011898404 0.005424629 -0.012003435 0.11181751 0.067454286 0.0035899454 0.05653765 -0.07747804
0.054193042 0.07242829 0.054091576 -0.012989354 0.045904428 -0.08157154 -0.07756829 -0.07949774
-0.026288534 0.05428371 0.06580571 0.08872024 -0.2445851 -0.13758393 0.018755276 0.075308695
-0.12263453 0.10538799 -0.06674316 -0.0027739762 -0.10088384 -0.1410691 0.020914165 -0.012564513
-0.28096175 -0.06224972 0.08282465 -0.0744946 -0.0009635251 -0.100132495 -0.16189219 0.008626545
-0.042146023 0.04793509 0.027608708 0.026292928 -0.3234234 0.09997912 -0.018185504 0.059645936
0.104716145 -0.21884319 -0.017164214 -0.15773825 -0.21827053 -0.00044973506 -0.11552869 -0.09317212
0.07973932 -0.017375262 -0.0048494367 0.05585195 -0.07161376 0.102841 -0.053959087 0.05355559
-0.059959512 0.0381371 0.077004 -0.012695185 0.08001241 -0.15311521 0.03008205 -0.02040872
0.12337196 0.10869592 0.010524942 -0.1459991 -0.11142629 -0.022611577 -0.025637819 0.07702833
-0.021176158 -0.1195549 -0.20910703 -0.052334473 -0.021793818 -0.1851521 -0.116610184 0.05286839
0.08227677 0.06629248 0.13126555 -0.030537715 -0.25751632 0.049853556 -0.16065097 -0.097739585
0.06330546 0.09269122 -0.13164571 -0.0879434 -0.036673434 -0.20109183 0.115050964 0.0823238
-0.17184786 -0.052386776 -0.15975964 -0.054829516 -0.04366227 -0.12115915 -0.09935995 0.03747279
-0.13427125 0.096507065 -0.28669444 -0.02719972 0.03671946 -0.058905322 -0.1440251 -0.09096946
-0.05463422 0.05970515 0.09890829 0.018647932 -0.15832534 0.13600211 0.060852814 -0.08382642
-0.18522884 -0.11973309 0.073128395 -0.11588495 -0.12719308 0.04429555 0.023404248 -0.054976005
-0.08314897 0.08114256 0.027989544 -0.08304963 -0.14283499 -0.035966456 -0.010645348 -0.18121634
-0.11742547 -0.10498883 0.07818042 -0.107476205 -0.0073486855 -0.1727116 -0.038568027 0.10877866
0.036485996 -0.054628745 -0.06337706 -0.0051595042 -0.08636494 0.0019465331 -0.030585984 0.0066089774
0.06727783 -0.20189857 0.07349918 0.10608769 0.14700021 0.10016627 0.08831564 0.073099874
0.046959266 0.020862713 0.04604279 -0.12707554 0.051352993 -0.07016908 -0.08646396 0.009511459
0.11661811 0.05589853 -0.05984881 -0.00661331 -0.013489187 0.0002741336 0.0035597833 -0.14636955
0.071829796 0.05172984 0.07760056 0.05474243 0.0122781275 0.11708587 0.024740448 0.10885801
-0.043705337 -0.033862416 -0.0067164255 -0.06930583 0.03895353 -0.039534714 0.058861423 -0.21147276
0.07208693 -0.03843835 0.14093499 0.06509869 0.04384292 -0.0033217845 -0.04953813 -0.1643334
00000000: 7407 5b3d 988f 173d 1151 babd f847 cf3d
00000010: fd0c f4bd a83e 0fbe c604 493d 0797 6d3b
00000020: 1d54 0ebe 9443 93bc 3651 633d 7b0f 61be
00000030: b2e3 94bd b27c f83c b71b 60be 207f 393d
00000040: 8539 1dbe 1991 4fbe aa91 9f3c da43 06be
00000050: b473 d73d c4fd c53d dc8e 28bc 4081 3bbd
00000060: c6d7 b13d e0bf b7bc 88a3 9a3c 1915 e33d
00000070: 5790 183e e1d5 4a3b 698b d93d 3eac 04be
00000080: 3687 deb9 8ab2 dfbc ea81 e3bd 5796 83bb
00000090: ac17 583d 4b9e 973d b2f3 cf3c fbae cfbd
000000a0: 2d56 9d3d 4edf 1fbe e5f2 09be 9cc1 a3bd
000000b0: 4b43 123d ad6e b8bd ab42 36bc 0b83 c0bd
000000c0: 86f1 42bc 16c1 b13b 0eaa 44bc 9400 e53d
000000d0: 7925 8a3d 4a45 6b3b 0694 673d ceac 9ebd
000000e0: 86f9 5d3d 4955 943d 218f 5d3d 4dd1 54bc
000000f0: 4806 3c3d fb0e a7bd 20dc 9ebd b6cf a2bd
00000100: 0d5b d7bc 9858 5e3d 25c5 863d f5b2 b53d
00000110: 8474 7abe cde2 0cbe aaa4 993c 723b 9a3d
00000120: d027 fbbd a9d5 d73d a3b0 88bd 99cb 35bb
00000130: 309c cebd 6b74 10be 2f54 ab3c 63db 4dbc
00000140: 38da 8fbe 90f9 7ebd f89f a93d a090 98bd
00000150: 1395 7cba 4412 cdbd 11c7 25be 5a56 0d3c
00000160: 4fa1 2cbd 9657 443d a82b e23c 4464 d73c
00000170: c097 a5be dac1 cc3d c4f9 94bc 4c4f 743d
00000180: 6b75 d63d 6e18 60be f79b 8cbc 2386 21be
00000190: 4f82 5fbe 6bca ebb9 4e9a ecbd 06d1 bebd
000001a0: 5e4e a33d 9156 8ebc 06e8 9ebb 04c5 643d
000001b0: 3caa 92bd 4d9e d23d 3404 5dbd 1b5d 5b3d
000001c0: 1b98 75bd a635 1c3d 46b4 9d3d 77ff 4fbc
000001d0: 8cdd a33d 3cca 1cbe a26e f63c 3030 a7bc
000001e0: 70aa fc3d f79b de3d ce70 2c3c ca80 15be
000001f0: 7733 e4bd ea3b b9bc 6706 d2bc 07c1 9d3d
00000200: 9f79 adbc 33d9 f4bd 2720 56be ac5c 56bd
00000210: f388 b2bc 8398 3dbe 52d1 eebd 868c 583d
00000220: b980 a83d 5ac4 873d 7a6a 063e 3b2a fabc
00000230: 2ed9 83be 3e33 4c3d b081 24be b12b c8bd
00000240: 4ba6 813d e5d4 bd3d 22ce 06be ab1b b4bd
00000250: e236 16bd 04eb 4dbe d79f eb3d 6199 a83d
00000260: e3f8 2fbe 8493 56bd 0898 23be ea94 60bd
00000270: 35d7 32bd 4a22 f8bd 3b7d cbbd 117d 193d
00000280: 677e 09be 7fa5 c53d 9dc9 92be f2d1 debc
00000290: 2567 163d b546 71bd 517b 13be 324e babd
000002a0: 22c8 5fbd 638d 743d 6e90 ca3d 8cc3 983c
000002b0: 0a20 22be 2344 0b3e cd40 793d 30ad abbd
000002c0: a1ac 3dbe 9f36 f5bd 57c4 953d 1755 edbd
000002d0: e73e 02be 406f 353d 44ba bf3c 852e 61bd
000002e0: 024a aabd 122e a63d 544a e53c ed15 aabd
000002f0: 5643 12be 9051 13bd d369 2ebc c790 39be
00000300: c47c f0bd 6204 d7bd 0e1d a03d 7c1c dcbd
00000310: 3ecd f0bb 4fdb 30be 82f9 1dbd 59c7 de3d
00000320: 5772 153d 64c2 5fbd d5cb 81bd 0f11 a9bb
00000330: 1ae0 b0bd d022 ff3a 758f fabc 1f90 d83b
00000340: f5c8 893d 80be 4ebe bd86 963d 8144 d93d
00000350: 3987 163e f923 cd3d d5de b43d 63b5 953d
00000360: 5c58 403d 48e8 aa3c 5d97 3c3d 1720 02be
00000370: 8457 523d ceb4 8fbd 0414 b1bd f3d5 1b3c
00000380: 7ad5 ee3d dbf5 643d 0724 75bd 77b4 d8bb
00000390: c001 5dbc 97b9 8f39 414b 693b e6e1 15be
000003a0: 801b 933d abe2 533d 0bed 9e3d 9939 603d
000003b0: 332a 493c b7ca ef3d 7bac ca3c f3f0 de3d
000003c0: 5e04 33bd 51b3 0abd 7615 dcbb 37f0 8dbd
000003d0: bd8d 1f3d 27ef 21bd ad18 713d 518c 58be
000003e0: 50a2 933d 8871 1dbd 4351 103e 7652 853d
000003f0: a294 333d 4cb2 59bb 7fe8 4abd 0447 28be

model.6.bias f4 [61]
0.038348567 -0.013904989 -0.04733096 -0.053419586 0.008419637 -0.043537315 0.00689903 0.039920732
-0.0741292 0.033845052 0.028046966 0.01620248 -0.053016163 -0.04730459 0.029808886 -0.07046586
-0.056925632 0.042242106 0.022880504 -0.016697897 -0.008443131 0.008140544 -0.0630261 -0.009747819
0.055848546 -0.07239815 0.0029157111 -0.095844366 0.016809333 -0.082913585 -0.036173485 -0.048232853
0.09655302 0.002597156 -0.042006284 0.0068266317 -0.044598263 0.0639034 0.07441748 -0.018914914
0.037018318 -0.039108366 -0.004321041 -0.013061356 -0.05759799 -0.11475842 0.112235665 -0.0064803935
-0.017415354 0.0036842888 0.068208404 -0.022285976 0.08470524 0.07024412 0.002042727 -0.025945226
0.017895076 0.0183426 -0.010664585 -0.10098663 0.010749555
00000000: 6313 1d3d c0d1 63bc 1cde 41bd 7fce 5abd
00000010: 84f2 093c 2f54 32bd 4211 e23b ec83 233d
00000020: 0dd1 97bd 1ca1 0a3d c0c2 e53c 10bb 843c
00000030: 7a27 59bd 75c2 41bd c431 f43c 6850 90bd
00000040: da2a 69bd 0f06 2d3d e56f bb3c 07ca 88bc
00000050: 0f55 0abc eb5f 053c d413 81bd 51b5 1fbc
00000060: 72c1 643d 7b45 94bd 8415 3f3b 0d4a c4bd
00000070: bab3 893c 99ce a9bd a62a 14bd d08f 45bd
00000080: 97bd c53d 0c35 2a3b c80e 2cbd f0b1 df3b
00000090: abac 36bd c9df 823d 3168 983d 73f3 9abc
000000a0: 85a0 173d 1830 20bd 8597 8dbb 4cff 55bc
000000b0: dfeb 6bbd 7606 ebbd d0db e53d 7b59 d4bb
000000c0: a5aa 8ebc 1c74 713b d9b0 8b3d 1491 b6bc
000000d0: f179 ad3d 26dc 8f3d 46df 053b 158b d4bc
000000e0: b298 923c 3843 963c 83ba 2ebc 14d2 cebd
000000f0: e71e 303c
