code/disease_predictor_final.pt (torch, 29565 bytes, 4 tensors)

network.0.weight f4 [128, 10]
0	0xc00ef91c	-2.2339544
1	0x3c829f25	0.015945027
2	0x3bdcf089	0.006742541
3	0x3c77cab4	0.015124012
4	0xbc3c9c22	-0.011511834
5	0xbb63745d	-0.003470681
6	0xbc88137c	-0.016610853
7	0xbb30119c	-0.0026865965
8	0xbc9410a8	-0.018074349
9	0x3bcf904e	0.006334341
10	0xbdf9292d	-0.12166057
11	0xbdb13c2f	-0.08654057
12	0xbe4fd096	-0.20294413
13	0xbe9bc5b1	-0.30424264
14	0xbd7c7a6d	-0.06164019
15	0x3e2da140	0.16956043
16	0xbe591770	-0.21200347
17	0x3ccbb50b	0.024866601
18	0x3ddb1d09	0.106988974
19	0x3e0a6dff	0.13518523
20	0x40381d38	2.8767834
21	0xbba2ce57	-0.0049684453
22	0xbc695c2c	-0.014243167
23	0xba505628	-0.00079474086
24	0x3cbc19f5	0.022961596
25	0xbb5c2971	-0.0033594037
26	0xbc201aeb	-0.009772043
27	0xbc71af00	-0.014751196
28	0x3cd58e8b	0.026068946
29	0x3cd0793f	0.02544844
30	0x404a3f65	3.1601193
31	0xbc114ac2	-0.008867921
32	0xbc54a5ba	-0.012978965
33	0xbc6e46aa	-0.014543215
34	0xbb8076fe	-0.003920435
35	0x3c15a40b	0.009133349
36	0x3d315f94	0.04330404
37	0x3b67be51	0.003536124
38	0x3c63d8d3	0.013906675
39	0xba687185	-0.00088670134
40	0xbfc165ff	-1.5109252
41	0xbc97ee80	-0.018546343
42	0xbc27a036	-0.010231068
43	0x3c73c4fc	0.014878508
44	0xbd79b53b	-0.06096385
45	0x3d91fffe	0.07128905
46	0x3c5bde46	0.013419693
47	0xbb177b11	-0.0023114125
48	0xbe05c37a	-0.1306285
49	0xbcb55d2b	-0.022139153
50	0x40127c39	2.288832
51	0xbbd110ec	-0.006380191
52	0xb9c65e94	-0.0003783597
53	0xbb701167	-0.0036631466
54	0xbb0e0c60	-0.0021674857
55	0x3aa2a08e	0.0012407468
56	0x3d3d4d2d	0.04621618
57	0x3b8d427f	0.0043109055
58	0x3cc7e3dd	0.024400646
59	0x3b767176	0.003760425
60	0xbfcc530c	-1.5962844
61	0xbcb02e0d	-0.021506334
62	0x3d061c5d	0.032741893
63	0xbd7a2059	-0.061066005
64	0x3d661db5	0.056180675
65	0xbc84154f	-0.016123442
66	0x3d7742c0	0.060366392
67	0xbd15e59b	-0.036595922
68	0x3d3d893d	0.04627346
69	0xbd8d5326	-0.06900625
70	0x3d6aa5d6	0.05728706
71	0xbdc17400	-0.09445953
72	0x3e01e61e	0.12685439
73	0x3e9695cc	0.2941116
74	0xbcca71a3	-0.02471239
75	0x3dc258a0	0.0948956
76	0x3df16702	0.11787225
77	0x3e3f8f95	0.18707116
78	0x3e14ed01	0.14543535
79	0xbd8b91b4	-0.068149
80	0xbe846c0d	-0.25863686
81	0xbccb8de9	-0.024847941
82	0x3d43e954	0.04782994
83	0x3de0f2f9	0.10983843
84	0xbbf4ffaa	-0.0074767666
85	0xbda02cb3	-0.07821026
86	0xbe947e20	-0.29002476
87	0x3d25eb47	0.04050758
88	0xbd542305	-0.05179121
89	0xbd73a63a	-0.059484698
90	0xbd72abf9	-0.059246037
91	0xbd7ff5e9	-0.062490378
92	0x3e5d64c5	0.21620472
93	0x3e9525c5	0.29130378
94	0xbe0644aa	-0.13112131
95	0x3c0206c4	0.007936183
96	0xbd5402ce	-0.051760487
97	0xbdf6681b	-0.12031575
98	0x3ca4598d	0.020062232
99	0x3e84f8f1	0.25971177
100	0x3d235893	0.039879393
101	0xbe6e45e3	-0.23268847
102	0x3e6531f2	0.22382334
103	0x3dfb617f	0.12274455
104	0xbd95a9a9	-0.07307751
105	0x3dfebea5	0.12438706
106	0xbe844ec9	-0.25841358
107	0xbea14ff5	-0.31506315
108	0x3e243a07	0.1603776
109	0x3d4f04f7	0.050541844
110	0x3e1e3593	0.15450124
111	0x3e344860	0.17605734
112	0xbcc8bbf6	-0.02450369
113	0x3c8a1a07	0.016858114
114	0x3dd0e9d8	0.10200852
115	0x3db83077	0.08993619
116	0xbe8b8f68	-0.27257848
117	0x3d7f0eca	0.062269963
118	0x3d8bccd2	0.06826176
119	0x3e2ee9cb	0.17081372
120	0xbf729123	-0.9475271
121	0x3d579e96	0.052641474
122	0x3d97adaf	0.074061744
123	0x3d3a44dc	0.045475826
124	0x3c2d0b0f	0.010561719
125	0x3d42d987	0.04757073
126	0x3d84cc8d	0.064843275
127	0x3ccc3ebb	0.024932256
128	0xbdd04afc	-0.10170552
129	0xbd7362bf	-0.059420343
130	0x3dd73570	0.10508239
131	0xbdadbedc	-0.08483669
132	0x3e9042c1	0.2817593
133	0x3e06f5ac	0.13179654
134	0x3e34d050	0.1765759
135	0x3e9d05e8	0.3066857
136	0x3d0a7686	0.03380444
137	0x3d8f939c	0.07010576
138	0x3c5a08e3	0.013307783
139	0xbdaae409	-0.083442755
140	0x40bb468a	5.8523607
141	0x3a83a536	0.0010043744
142	0xba089d64	-0.00052114413
143	0xbc1d9279	-0.009617441
144	0xbc11cd0c	-0.008898985
145	0xbb1c703b	-0.0023870606
146	0x3c06bbbe	0.008223472
147	0xbb2be526	-0.0026229112
148	0xba1c9f9a	-0.000597471
149	0x3c0378d0	0.008024409
150	0xc015fb3c	-2.3434591
151	0x3d12a9a4	0.035806313
152	0xbc87818a	-0.016541261
153	0xbd11f908	-0.035637885
154	0x3d8379cb	0.064197145
155	0xbd1e37f1	-0.03862757
156	0xbc90e042	-0.01768506
157	0xbd77f272	-0.06053395
158	0x3d7c14f8	0.061543435
159	0xbb7c33a7	-0.0038482936
160	0xbf15fea2	-0.58591664
161	0xbd5b789d	-0.053581823
162	0x3caecee0	0.02133888
163	0x3dc2a91a	0.0950491
164	0x3d92aa28	0.07161361
165	0x3db03960	0.086046934
166	0xbc971628	-0.018443182
167	0x3d0f8b2f	0.035044845
168	0xbd3d71a0	-0.04625094
169	0x3d61c7ce	0.05512219
170	0x3e639471	0.22224595
171	0xbe63484c	-0.22195548
172	0x3daa5084	0.083161384
173	0xbdaa0393	-0.08301463
174	0x3e14f395	0.14546044
175	0x3e969f59	0.29418448
176	0xbc1fc62a	-0.009751836
177	0xbde707a0	-0.11280751
178	0xbd5ddebc	-0.054167494
179	0x3be5c077	0.007011469
180	0xbd1df147	-0.038560178
181	0x3e4e7b72	0.20164278
182	0x3d65e8f2	0.056130357
183	0x3e7869b6	0.24259076
184	0x3e0a1bd1	0.13487174
185	0x3c26d6fd	0.010183093
186	0xbe8cea54	-0.27522528
187	0xbe542736	-0.20718083
188	0xbd458365	-0.04822101
189	0xbb4592bc	-0.0030147275
190	0x403c7894	2.9448595
191	0xbcaf07f0	-0.02136609
192	0xbb36b395	-0.0027878035
193	0xbbcf8bdd	-0.0063338117
194	0xbbebb2ec	-0.00719296
195	0xbb30fca2	-0.002700605
196	0x3d0f1a27	0.03493705
197	0x3b422374	0.0029623182
198	0x3c8e8a32	0.017399881
199	0x3c0e6891	0.008691923
200	0xbd8d0416	-0.06885545
201	0xbe3b958c	-0.18318766
202	0xbd013de2	-0.031553157
203	0xbd60cc0a	-0.054882087
204	0xbe41340a	-0.18867508
205	0x3e88ea95	0.26741472
206	0x3e84cc1c	0.25936973
207	0xbe98635c	-0.29763305
208	0xbd076082	-0.03305102
209	0x3e60dceb	0.21959274
210	0x3d0a02c9	0.033694062
211	0xbe94d337	-0.29067394
212	0x3e9b5716	0.3033988
213	0x3998ea78	0.00029166392
214	0x3e2bb911	0.16769816
215	0x3dbfbaa4	0.09361771
216	0x3e0c422c	0.13697118
217	0x3e59937b	0.21247666
218	0x3d574c72	0.05256314
219	0x3e3c465e	0.18386218
220	0x409e782b	4.952169
221	0xba8e614e	-0.0010862739
222	0xbc158eb2	-0.0091282595
223	0x3c0a428d	0.0084387185
224	0x3c2a2806	0.010385519
225	0xbc0beb96	-0.008540055
226	0xbc009604	-0.0078482665
227	0xbcaa6acc	-0.020802878
228	0x3c7effc6	0.015563911
229	0x3c34ccbd	0.011035142
230	0x3ff4230e	1.9073198
231	0xbbb2346b	-0.0054383776
232	0xbc24e603	-0.010064605
233	0x3c0639e8	0.008192517
234	0x3c96d177	0.018410427
235	0xbc3fb993	-0.011701959
236	0xbc3004dd	-0.010743347
237	0xbbe6fbfd	-0.0070490823
238	0x3c5f5aec	0.013632517
239	0x3c9072fa	0.01763295
240	0xbf0a87ee	-0.5411366
241	0xbca2625b	-0.01982229
242	0xbdff845f	-0.1247642
243	0xbdadda9c	-0.08488962
244	0x3e076fd6	0.13226256
245	0xbdaf6899	-0.08564872
246	0x3da124c4	0.078683406
247	0x3d38b658	0.04509577
248	0xbda64453	-0.081185006
249	0xbd5bb3ba	-0.053638197
250	0xbe36c496	-0.17848429
251	0xbd823d42	-0.0635934
252	0x3e0a630e	0.13514349
253	0x3e74f223	0.23920493
254	0x3d9edc4b	0.07756861
255	0x3caf98ce	0.021435168

network.0.bias f4 [128]
0	0x400f430d	2.2384675
1	0xbe630b86	-0.22172365
2	0xbe143a68	-0.14475405
3	0x3b8e3077	0.0043392736
4	0x3fc1c16b	1.5137151
5	0x3b91b1b7	0.004446234
6	0x3fcc93e8	1.5982637
7	0xbdd4250a	-0.10358627
8	0xbe8a296c	-0.26984727
9	0xbe93b9f7	-0.28852817
10	0xbe25ea39	-0.1620263
11	0xbe6b1176	-0.2295588
12	0x3f738f9a	0.95140994
13	0xbe19cfe4	-0.1502071
14	0xbe15ce88	-0.14629567
15	0x40064dd0	2.0984993
16	0x3f17c32a	0.5928217
17	0xbea09aa1	-0.31367972
18	0xbd5abcd2	-0.05340273
19	0x3b6ffa17	0.003661757
20	0xbdc23cff	-0.0948429
21	0xbe115db9	-0.14195909
22	0xbe7d6640	-0.24746037
23	0xbe12060a	-0.14260116
24	0x3f0c54b6	0.5481676
25	0xbdd1e7d0	-0.10249293
26	0xbe96b638	-0.29435897
27	0x40001b46	2.0016646
28	0xbe8a3c96	-0.26999348
29	0x400c6de7	2.194208
30	0xbe94e1e1	-0.29078582
31	0xbdfa735b	-0.122290336
32	0xbdc1ad14	-0.0945684
33	0x3f1c46c2	0.6104547
34	0xbf75cc45	-0.96014816
35	0xbfff764a	-1.9957974
36	0x3b81c52d	0.0039602728
37	0x3f37f7c4	0.71862435
38	0x3b8953f3	0.0041909157
39	0xbd67eab5	-0.05662032
40	0xbd7d5f11	-0.06185824
41	0xbdc195cb	-0.09452399
42	0x3b53314f	0.0032225435
43	0xbdf372c4	-0.11887124
44	0x3f95feed	1.1718422
45	0x3bbb9654	0.0057247076
46	0xbe9419c9	-0.28925923
47	0x3fdb81e8	1.7149019
48	0x3f48e41c	0.7847307
49	0x3fe42c3a	1.7825997
50	0x3f5e3bdb	0.8681008
51	0xbdd134ed	-0.10215173
52	0xbe63aa7f	-0.22233008
53	0x3fd14c17	1.6351346
54	0xbdafb2cb	-0.08579024
55	0x3f6cb0e1	0.92457396
56	0x3f88cf64	1.068829
57	0x3ff4dd5b	1.9130052
58	0x4016e6f6	2.3578467
59	0x3b40f4eb	0.0029442857
60	0xbe4c5cc0	-0.19957256
61	0xbd9ce434	-0.07660714
62	0xbdabdcf8	-0.08391756
63	0xbea1cd94	-0.31602156
64	0xbe6ca9e8	-0.23111689
65	0xbe0487d4	-0.1294244
66	0xbde0a4f4	-0.10968962
67	0xbe40e3f9	-0.18836965
68	0x402152e3	2.520684
69	0x3b9263ba	0.0044674547
70	0xbdac4d18	-0.08413142
71	0x4058834f	3.3830144
72	0xbe52a79b	-0.20571749
73	0x3b8bb867	0.004263926
74	0xbe6d9ee8	-0.23205149
75	0xc0188131	-2.3828852
76	0x404e87de	3.2270427
77	0xbfc2eabd	-1.5227886
78	0x4028da11	2.6383097
79	0xbe23795b	-0.15964262
80	0xbe6ccf62	-0.23125985
81	0x3da0dba9	0.07854397
82	0xbe9e3dad	-0.3090643
83	0x3f49d6e1	0.78843504
84	0x4040ecca	3.0144525
85	0x3f4901ea	0.78518546
86	0xbda8ff13	-0.082517765
87	0x3b996fc9	0.0046825153
88	0xbe8cacb8	-0.27475524
89	0x3fe710cc	1.8052001
90	0xbdac6dd7	-0.08419388
91	0xbe834bea	-0.25643855
92	0xbe88bf70	-0.26708555
93	0xbd8573bf	-0.065162174
94	0xbdbe785c	-0.093003005
95	0xbe933615	-0.287522
96	0x3b80ec72	0.0039344365
97	0xbe5b5400	-0.21418762
98	0xbfd9a763	-1.7004207
99	0x4020e512	2.5139813
100	0x3ba2ac75	0.004964406
101	0xbe85f72c	-0.2616514
102	0xbe672c35	-0.22575457
103	0xc0309b0f	-2.759464
104	0xbe8b7be4	-0.2724296
105	0xbe791fc5	-0.24328525
106	0x3b5378e4	0.0032268101
107	0xbdcd8e70	-0.100369334
108	0xbd4371ae	-0.047715835
109	0xbe318494	-0.17335731
110	0x406ca4bf	3.6975553
111	0x3b24ab87	0.0025126652
112	0xbea03566	-0.3129074
113	0x40275cfa	2.6150498
114	0xbe8b8c8d	-0.2725567
115	0xbe9ffea4	-0.31248963
116	0xbda25837	-0.07926982
117	0xbd92adb2	-0.07162036
118	0xbe9ff49b	-0.31241307
119	0xbde0cc9c	-0.10976526
120	0xbe440b24	-0.19144875
121	0xbe9fc72d	-0.31206647
122	0x3f90c531	1.1310178
123	0xbdd11e5b	-0.10210868
124	0x3fe6c0a6	1.8027542
125	0x3ec2e359	0.38064077
126	0xbe3b7178	-0.18305004
127	0xbde24487	-0.11048227

network.3.weight f4 [41, 128]
0	0x3e6fd08b	0.23419397
1	0x3d13a254	0.03604348
2	0xbf9df4bb	-1.2340311
3	0xc18b7458	-17.431808
4	0xbd52aec8	-0.051436216
5	0xc1644d56	-14.268881
6	0xbd21ef05	-0.039534587
7	0x3d51a90b	0.051186603
8	0x3c8c50ac	0.017128311
9	0x3b8a07e5	0.004212367
10	0xbcf15b6e	-0.029462542
11	0x3d831949	0.06401307
12	0xbe9e006e	-0.30859703
13	0x3d7980de	0.060913913
14	0xc0f6007f	-7.6875606
15	0x3ea151d7	0.3150775
16	0xbecc776b	-0.3993486
17	0x3bae57df	0.0053205336
18	0x3cf8674e	0.030322697
19	0xc1898ad2	-17.192783
20	0xbd8b3a52	-0.06798233
21	0xbd8a8a10	-0.067646146
22	0xbfc6bd88	-1.552659
23	0xbf944d0b	-1.1586012
24	0xbee85612	-0.45378166
25	0xbc66b9d2	-0.014082389
26	0x3da2b991	0.0794555
27	0x3de36597	0.11103361
28	0x3d84cfa5	0.064849176
29	0x3e1bbd07	0.15208827
30	0xbc934667	-0.017977906
31	0x3da336c0	0.07969427
32	0xbf9a3bca	-1.2049496
33	0xbeaf8b89	-0.34286144
34	0xbfe3d351	-1.7798864
35	0xbf852bb5	-1.0403963
36	0xc182be3f	-16.342894
37	0xbed52210	-0.4162755
38	0xc17356da	-15.208704
39	0xbfff6fe8	-1.9956026
40	0xbffea087	-1.9892739
41	0xbd3069a6	-0.043069504
42	0xc1605668	-14.021095
43	0x3cd4cab6	0.025975566
44	0xbe5cf4ae	-0.21577713
45	0xc19a936e	-19.321987
46	0x3a1e5c8d	0.0006041013
47	0xbd62f32c	-0.055407688
48	0xbe67f078	-0.22650325
49	0x3d8a6beb	0.06758865
50	0xbe987014	-0.2977301
51	0xbd8b6e7f	-0.06808185
52	0x3c3e87bd	0.011629042
53	0x3cde111a	0.027107764
54	0x3d89bc8c	0.067254156
55	0xbe73e381	-0.23817255
56	0xbe294170	-0.16528869
57	0x3ddd4dbe	0.10805844
58	0x3ead3a48	0.33833528
59	0xc18c0fbc	-17.507683
60	0x3c28116a	0.010258058
61	0xbfe46ced	-1.7845742
62	0xbf9abaf3	-1.2088302
63	0x3d8015b2	0.06254138
64	0xbf816b8b	-1.0110945
65	0x3d1111f4	0.035417512
66	0xbf477908	-0.77919054
67	0xbd8a17a0	-0.06742787
68	0x3edbab2b	0.42904028
69	0xc1615e48	-14.085518
70	0xc01777b7	-2.3666818
71	0x3f07d0f8	0.53053236
72	0x3bc49634	0.005999351
73	0xc1831f63	-16.390326
74	0xbd38b95b	-0.045098644
75	0xbf92f626	-1.1481369
76	0x3ee0f7c1	0.4393902
77	0xbfa94da3	-1.3226818
78	0x3ef5f351	0.48037198
79	0x3d8dd5de	0.069255576
80	0x3d7ac965	0.06122722
81	0xbf52b0f8	-0.8230128
82	0xbce5d9fa	-0.02805804
83	0xbeb7fd76	-0.35935563
84	0x3f10c0aa	0.5654398
85	0xbeabfd14	-0.3359152
86	0xbf95aff0	-1.1694317
87	0xc168c137	-14.547172
88	0x3d8bc1f5	0.06824104
89	0x3c57b9d0	0.01316686
90	0xbd3e79aa	-0.046502747
91	0xbbdf7d56	-0.006820361
92	0x3c611df4	0.013740052
93	0x3d01c534	0.03168221
94	0xc03e385c	-2.97219
95	0x3d46e227	0.04855552
96	0xc1869a38	-16.825302
97	0x3da3a2ca	0.07990034
98	0xbfb94bb2	-1.4476225
99	0x3e974425	0.29544178
100	0xc18e2c31	-17.771578
101	0xbd552930	-0.052041233
102	0x3d99d3b6	0.07511084
103	0xbf54fbe1	-0.83196837
104	0xbd2f8640	-0.04285264
105	0xbd60f5ed	-0.054922033
106	0xc1842862	-16.519718
107	0xc00f661b	-2.240607
108	0xbfa01fdb	-1.2509722
109	0xbd5e3bdb	-0.0542563
110	0x3f0951bf	0.5364036
111	0xc19ac495	-19.345987
112	0x3cb53e01	0.022124292
113	0x3ec33d82	0.38132864
114	0xbc91ecac	-0.01781305
115	0xbd3257c9	-0.04354075
116	0x3c9f5ed8	0.019454405
117	0xc01a568e	-2.4115329
118	0x3db21ef6	0.086973116
119	0x3bf3a29e	0.007435157
120	0xbf9bb3ae	-1.2164209
121	0xbd443984	-0.047906414
122	0xbe488430	-0.19581676
123	0xbdb2b28b	-0.087254606
124	0x3df67f03	0.12035944
125	0xbf1ae63e	-0.6050757
126	0x3d405a2d	0.046961
127	0xbd265546	-0.040608667
128	0xbcc34752	-0.02383772
129	0xbcec91e8	-0.028878167
130	0xc0816627	-4.04372
131	0x40b97c82	5.7964487
132	0xbdcf69e8	-0.10127622
133	0x40ac48c5	5.383883
134	0xbe339585	-0.17537506
135	0x3d27a14c	0.04092531
136	0xbd1d8017	-0.038452234
137	0x3d36f8ff	0.044671055
138	0xbd9e0fd9	-0.077178665
139	0x3d0146f6	0.031561814
140	0xbe5d2bec	-0.21598786
141	0xbd81aa39	-0.063312955
142	0xc1b30122	-22.375553
143	0xbc88bf8e	-0.016692903
144	0xbe949a7a	-0.29024106
145	0x3d157a60	0.03649366
146	0xbc8d059a	-0.017214585
147	0x40b3d3f8	5.619625
148	0x3d70d94d	0.058800984
149	0x3d0ccf2a	0.034377255
150	0xc0efb214	-7.490488
151	0xbeb6d6ad	-0.3571066
152	0xbe84bd78	-0.25925803
153	0x3d9c27f0	0.07624805
154	0xbda44fe4	-0.080230504
155	0xbd854304	-0.06506923
156	0xbc30a67c	-0.0107818805
157	0xbcfa1e7f	-0.03053212
158	0xbd8f910c	-0.07010087
159	0xbd9f6f23	-0.077848695
160	0xc00fe3c6	-2.2482772
161	0xbea07d7d	-0.3134574
162	0xc13113ae	-11.067305
163	0xbf914f56	-1.1352336
164	0x40b9107d	5.7832627
165	0xbe70bc4f	-0.23509334
166	0x40b17632	5.545678
167	0xc175e285	-15.367803
168	0xc18519f9	-16.637682
169	0x3d1dc49d	0.038517583
170	0x40b1425c	5.5393505
171	0x39a25bbc	0.00030967395
172	0xbe82ac83	-0.2552224
173	0x40a1fac2	5.06186
174	0x3d6ac1d8	0.05731377
175	0xbd962c13	-0.07332625
176	0xbe505a75	-0.20347007
177	0xbddcaff0	-0.10775745
178	0xbe80a5e8	-0.25126576
179	0x3d2d14de	0.04225623
180	0x3d819405	0.063270606
181	0xbe058a72	-0.13041094
182	0xbd08d11f	-0.03340256
183	0xbe572b12	-0.21012524
184	0xbe0f14f6	-0.1397284
185	0xbde28126	-0.11059789
186	0x3cff9911	0.031200917
187	0x40b10f80	5.533142
188	0xbdaaf6e6	-0.083478734
189	0xc1913099	-18.14873
190	0xbebcbd14	-0.36863005
191	0x3c44f7bd	0.012021956
192	0xc0d5d611	-6.682381
193	0x3d3b7bec	0.045772478
194	0xc035be84	-2.8397532
195	0x3d25e7c0	0.040504217
196	0x3d5259fc	0.051355347
197	0x40aed873	5.463922
198	0xc18e4efc	-17.788567
199	0x3d2e8c70	0.0426144
200	0x3d826676	0.06367199
201	0x40b7f1f1	5.748284
202	0x3ccfbf61	0.025359811
203	0xbf8b09bd	-1.0862347
204	0x3d29cd7f	0.041455742
205	0xc00261c9	-2.0372183
206	0x3c832260	0.016007602
207	0x3d604f67	0.054763224
208	0xbda07b42	-0.078360096
209	0xbe3c0dc7	-0.1836463
210	0x3ca76f4a	0.020438809
211	0xbe973225	-0.29530445
212	0x3c9ffc0a	0.019529361
213	0xbe934506	-0.28763598
214	0xc001444e	-2.019794
215	0x40b59ae1	5.675156
216	0xbd8b1583	-0.067912124
217	0xbdb62dad	-0.08895431
218	0xbd8d7f80	-0.06909084
219	0x3bdbc756	0.0067071123
220	0xbd67e45a	-0.056614257
221	0xbd9c3698	-0.076276004
222	0xc197b89f	-18.965147
223	0xbc4697f6	-0.012121191
224	0x40b60666	5.688281
225	0x3d54d80c	0.05196385
226	0xbfbbe00a	-1.4677746
227	0x3d126319	0.03573904
228	0x40b3c165	5.6173577
229	0xbdb47d72	-0.08812989
230	0xba8daa72	-0.0010808243
231	0xbf4edaae	-0.8080243
232	0x3d8bdf54	0.06829706
233	0xbc51b047	-0.012798375
234	0x40a8133c	5.252348
235	0xc1a2d141	-20.352175
236	0xbf5de029	-0.86670166
237	0xbcb139c8	-0.021633998
238	0x3deae4c4	0.11469415
239	0x40af2846	5.473666
240	0xbd828f61	-0.063750036
241	0x3d48a5ca	0.048986234
242	0x3c058f87	0.008151895
243	0x3d66350d	0.056202937
244	0x3db3d5a4	0.08780983
245	0xc184c404	-16.59571
246	0x3db4e21e	0.08832191
247	0x3d0e1ec7	0.03469732
248	0xc09dee9d	-4.9353776
249	0x3c846483	0.016161209
250	0xbe26e2fa	-0.16297522
251	0xbcefd664	-0.029277034
252	0xbdd6ac44	-0.10482076
253	0xbeb12032	-0.34594876
254	0x3cea80a8	0.028625801
255	0xbca31516	-0.019907515

network.3.bias f4 [41]
0	0xbf0e6deb	-0.5563647
1	0xbd9d7ad6	-0.07689445
2	0xbdce27ce	-0.10066186
3	0xbda6cdf3	-0.081447504
4	0xbd2ebd37	-0.042660918
5	0x3cbf4435	0.023347953
6	0xbcfa055d	-0.030520136
7	0xbd8e8178	-0.06958288
8	0xbd5ce92a	-0.0539333
9	0xbccf4c14	-0.025304832
10	0xbc51c784	-0.012803916
11	0xbdc11acd	-0.0942894
12	0x3bc65dca	0.006053661
13	0x3d4bb96e	0.049737386
14	0x3d6e0164	0.058106795
15	0x3dc1755f	0.09446215
16	0x3d91fc1c	0.07128164
17	0x3e1754df	0.1477847
18	0x3e0ff2b6	0.1405743
19	0x3d132bd1	0.03593046
20	0x3dca9562	0.09891774
21	0x3e349296	0.17634043
22	0x3e05ad81	0.13054468
23	0x3e7562bf	0.2396345
24	0x3e8c87db	0.274474
25	0x3e97e2d3	0.2966524
26	0x3e3d2448	0.18470871
27	0x3e75ca85	0.24003036
28	0x3e4fee1b	0.20305674
29	0x3e7b8527	0.24562512
30	0x3e828e4a	0.25499183
31	0x3ea5d221	0.32386878
32	0x3e8f82bf	0.2802944
33	0x3e846fe1	0.25866607
34	0x3ec3f592	0.38273293
35	0x3eb7f2df	0.35927483
36	0x3ea9c747	0.3315985
37	0x3d90b45f	0.07065653
38	0xbdf5d66c	-0.12003788
39	0xbe9ddf2d	-0.30834332
40	0xbf907327	-1.1285142
