code/disease_predictor_final.pt (torch, 29565 bytes, 4 tensors)

network.0.weight f4 [128, 10]
00000000: 9763 f1bd 5f3b 763e 4df7 46be efef 96be
00000010: f65f d2bc d009 e63d f2d6 893e 2a9c 51be
00000020: 8a69 343d 3f60 a0be ce53 9b3d 3878 5d3e
00000030: 051b 403e 5905 19be 5ebb 78be 2ac6 493e
00000040: 6e38 50be 6b18 613e f53b 9c3e c354 383e
00000050: 2b89 bf3e 4b51 8a3e 4427 363d f330 52be
00000060: 0efc 80be 219f 99bd e740 0d3d 7f6e 883d
00000070: 6ab6 ab3d 8b70 85be 3e98 413f 912e 933d
00000080: 093b 21be 195b 413e 7718 80be 065e 91bd
00000090: 4393 6fbd 4aad 2fbe a47b b4bd b801 c23c
000000a0: 39e5 e4bd ac01 d33d 7b32 923e 82fc 493e
000000b0: e3a8 843e 07e3 8a3d dd72 303e 0fbb 98be
000000c0: ab27 0e3e b704 703d d210 92be 89cf 863d
000000d0: b112 773d a23a 30bd 6520 5bbd f965 443e
000000e0: 0520 9f3e e035 74be e063 cc3d bf70 963e
000000f0: 89dd 6cbe 4722 9b3e 5c3e 003e 5050 68be
00000100: ec36 3c3e 6eba 9bbe c940 7bbe c046 353e
00000110: 9214 9d3e 1411 9f3e 668f 2fbe 39b0 9cbe
00000120: 2ea5 11be 3376 69be cb3a 0dbc 28fc 98bd
00000130: 1cab 88be b832 40be 57fc 873e 2120 89bc
00000140: ff0d 593e 744d 4bbe 2610 72be f036 803e
00000150: d247 3d3d 910b 83be 0dc4 343c 8fbd 97be
00000160: da8c d8ba 35a1 973e 1dfd d53e ff16 02be
00000170: 63d9 66be cf5c 17be 717a 813b 21cc ebbc
00000180: b3cc eabd 5c3a c2bd bfc4 9e3c 941b 613d
00000190: f214 90bd a5a0 683d 7451 00be 22f3 ea3d
000001a0: 3a77 39be bc02 76be 3079 233d 976a eb3d
000001b0: 9f21 06be 3b42 91be d742 f5be c969 c1bd
000001c0: 7cbd 77be 150d e93c 2e20 44be 091d 3fbd
000001d0: 7d01 b83e a180 0f3e 8e71 5d3e 5138 4dbd
000001e0: 15cf 493f 0d36 023e 6095 cc3c 4e11 323c
000001f0: e5a5 4a3d 6bfa 003e b31c 3bbe f707 bc3d
00000200: ba6f b23d 5396 353d 9831 6fbe 4478 8fbe
00000210: 435d 4abe e7d4 a03e 3187 0d3e 1fd6 b7bc
00000220: c928 783e 8abc 1abe 0106 28be b73e 98be
00000230: f524 1b40 5bef 70bd ccfa ea3d 3b6c b13c
00000240: e355 04bd 0926 063d 70ed 1d3d 5830 e0bb
00000250: 50a7 673d abb4 543d 6449 d2bd f412 3ebe
00000260: d86c 503e f782 05bd 313b e1bd e91e 90be
00000270: 0642 65be 0c8a 0e3e 5606 6bbe 837d 2cbe
00000280: 9f14 623f 293b 093d 75ea 37be 402d 473d
00000290: a833 033e f32a f63d 6bb2 89be 6462 b23d
000002a0: ec60 3ebd fa12 56be 35f3 f7be 1166 6fbe
000002b0: ab5a 293d 8afb 283e 8d7d 113e b247 3c3d
000002c0: 988b 28be 0cc2 43be 34c2 7d3d 05ea f93c
000002d0: dee4 b73e 148c f339 9881 cc3d 86d8 6cbe
000002e0: 920a 7bbe 135d 3f3e 45e5 92bd f1d2 e6bd
000002f0: 44cb 40bd fac6 bf3d ba61 203c ce1f 2cbc
00000300: e91f 14bd 85d8 843e 8c82 c73d 6423 7abc
00000310: a4e1 ddbd 97a0 7e3e 38c1 1f3e 198d 8dbd
00000320: 1b2c 233e 0659 1f3e 5706 79be 5039 80bd
00000330: 9d37 8f3e d31e 2f3e c40b 093e aee0 e23c
00000340: 6e63 63bd 4f15 8b3c 8e39 4f3e a77f 553e
00000350: 95a7 9c3e 03a8 8f3e 04ee c33d 50f7 793d
00000360: e634 8cbd 4146 403c aae8 7e3e f476 07be
00000370: 01bd 133f a030 c93c 1bae 2e3e 38ee 1f3e
00000380: 3234 223e a898 843e 61c8 583e 75c2 b3be
00000390: f100 4abe 6e9f 653e 048a 2bbe b61b 1e3e
000003a0: 4f2d 9bbe e54e 3d3e 3858 1c3e e4a1 d83d
000003b0: ff91 90be ae9e f03d 7f9f 943e 7256 90bd
000003c0: 5741 aa3e ed9e f33c 6501 1abe 5437 87bc
000003d0: da9e 57be 9310 6a3e eeea 0f3e baef cebd
000003e0: a5d1 10be db75 673e 3954 2fbf 244a 003d
000003f0: c2c9 e7bd b2fc 413d c9cf e63d 14b1 013e
-0.117865734 0.24046086 -0.19430275 -0.2947993 -0.025680523 0.1123234 0.26921803 -0.20469728
0.044045962 -0.3132343 0.07584344 0.21627891 0.18760307 -0.14943446 -0.24290225 0.197045
-0.20334026 0.21981971 0.30514494 0.18001084 0.37409338 0.27015147 0.04447104 -0.20526485
-0.25192302 -0.075010546 0.034485724 0.066617005 0.08384402 -0.26062426 0.7562293 0.07186616
-0.15745176 0.18882407 -0.25018665 -0.07098012 -0.05849005 -0.17155948 -0.08812645 0.02368246
-0.11176533 0.10303053 0.2855414 0.1972523 0.259101 0.06781583 0.17231317 -0.29830214
0.1388232 0.058598246 -0.28528458 0.06582553 0.06032056 -0.043024667 -0.05349769 0.19179524
0.31079116 -0.23848677 0.09979987 0.29382893 -0.23131384 0.3029959 0.12523788 -0.22686887
0.18380326 -0.30415672 -0.24536432 0.1770277 0.30679756 0.31067717 -0.17144546 -0.30603197
-0.14223167 -0.22798996 -0.008619974 -0.0746997 -0.26693046 -0.18769348 0.26559708 -0.016738953
0.21196745 -0.19853765 -0.23638973 0.25041914 0.04621107 -0.25594762 0.01103307 -0.2963681
-0.0016521469 0.2961518 0.41794673 -0.12704085 -0.22543864 -0.14781497 0.0039513637 -0.02878386
-0.114648245 -0.094837874 0.019380925 0.05495794 -0.07035245 0.056793828 -0.12531072 0.11472155
-0.18111888 -0.2402448 0.039910495 0.1149494 -0.13098763 -0.28370842 -0.47902557 -0.09444005
-0.24193376 0.02844862 -0.191529 -0.04665855 0.35938635 0.14013912 0.21625349 -0.050102536
0.7883161 0.12715931 0.024973571 0.010868384 0.049474616 0.12595527 -0.18272667 0.09181207
0.087127164 0.044332813 -0.23358762 -0.28021443 -0.19762139 0.31412432 0.13821103 -0.022440968
0.24234308 -0.15110984 -0.1640854 -0.29735348 2.4241307 -0.058822017 0.11473617 0.021658054
-0.03230847 0.032751117 0.038556516 -0.0068417005 0.056556046 0.05193011 -0.102679044 -0.18561918
0.2035402 -0.0325956 -0.10997618 -0.28148583 -0.22388467 0.13919848 -0.22951636 -0.16844754
0.88312715 0.033503685 -0.17960532 0.04862714 0.12812674 0.12019911 -0.26893935 0.08710173
-0.04647915 -0.20905676 -0.4842774 -0.23378779 0.041346233 0.16502205 0.1420805 0.04596681
-0.16459501 -0.19116992 0.061952785 0.030507097 0.359168 0.00046452938 0.099856555 -0.23129472
-0.24515751 0.18687849 -0.07172636 -0.11270703 -0.04706885 0.09364124 0.009788925 -0.01050563
-0.036163244 0.2594644 0.09741697 -0.015267227 -0.10834053 0.24865948 0.15601051 -0.06911678
0.15934794 0.15561303 -0.24318825 -0.062609315 0.27972117 0.17101602 0.13383394 0.027695026
-0.055514745 0.016977934 0.20236799 0.20849477 0.30596605 0.2805787 0.09566882 0.06102687
-0.06846027 0.0117355 0.24893442 -0.13228971 0.5771027 0.024559319 0.17058603 0.15618217
0.15840223 0.25897717 0.21170188 -0.35109296 -0.19726922 0.22424099 -0.16751868 0.15440258
-0.30308005 0.18487127 0.15268028 0.10577753 -0.28236386 0.11749016 0.29027936 -0.07047738
0.33252975 0.029738868 -0.15039594 -0.016505875 -0.21056691 0.22857885 0.14054462 -0.10104318
-0.14142473 0.22603552 -0.6848789 0.031320706 -0.11317779 0.04736013 0.112701006 0.12665206

network.0.bias f4 [128]
00000000: b188 f8bd 42dc 2fbe 15c7 a13d 1d69 333d
00000010: de74 1ebd f0ed 89be 41e7 89bd 55a1 0abe
00000020: cf62 dd3e 995d 143e 859d d1bd 2e92 123f
00000030: 531f 61bd 01d2 83be 6053 4ebf e45f e7bd
00000040: 77ba 84bc 3209 133f 11e2 4e3e 3971 b33e
00000050: 126f 733e 721d 093e fab2 1d3e 6865 64be
00000060: 4512 8e3e c2a1 113f 568f 92bc 9b3d 963e
00000070: 3dd0 983d 4ae8 9b3f 3edc 9f3e 6cbb 4d3e
00000080: 9d13 a2bc 5ef5 c93e 7789 38be c9a1 113f
00000090: 815b 87be aea3 993f 1d95 6d3e 4db3 29be
000000a0: 4608 8a3e 7fcd ec3e 4c29 17be d329 c33e
000000b0: 922c 9fbe e568 3b3c 446b 333f b8b3 0f3f
000000c0: 5206 533f 2d8c 373d 8b0d 1bbd 055b 9cbe
000000d0: d3b4 d03e 08e7 113f 5cc1 893e b1f8 983e
000000e0: fad8 053f 61dc 41be 8d3a 0bbf c341 ca3e
000000f0: 98e9 29be bbfe 95be 37c0 033f c295 88bd
00000100: 070c da3e 9d47 d63e c77e 87be 668e dd3e
00000110: 7131 ab3e a51d 51bd 402c 30bf 48a6 72be
00000120: 3f3d 903e 989b e03e 0caf 0e3f c934 d7bd
00000130: 87cb b63e 7cff 6abe 6b7c 0e3f 90b6 d83d
00000140: 566d b63e 4926 a83e 559d 9dbe 0346 92bd
00000150: b495 443e 0871 da3e b0d5 0b3f 4d4b 0f3e
00000160: f339 04be ab6f f03e d2a1 8abe 8df2 173e
00000170: 3335 023f 2704 1d3f 6fc6 a83e 2eaf a0be
00000180: 5573 813e d648 9e3e 2e70 c03e bc52 b33e
00000190: d010 553e aeb2 023d 3925 f63d 30c2 603e
000001a0: e3a9 a33f 3f8d 32be c23b 183e 20d3 053f
000001b0: 5521 e73d 89da b53e ff53 f1bd 5d9e 55be
000001c0: 1d33 de3e bb00 f5bd 8de9 273f 903b 94bd
000001d0: 273c 0bbe 0d11 f43e b7ed f6be 0d70 dcbd
000001e0: fb41 ccbd 4d8f 653f 83ef 0b3f 7cea 2e3d
000001f0: 4522 9e3e b3cd 893e c09b c43d 9097 92be
-0.12135447 -0.17173865 0.078993 0.043801416 -0.038685672 -0.26939344 -0.06733561 -0.13538106
0.43239447 0.1448883 -0.102351226 0.572543 -0.054961514 -0.25746158 -0.8059597 -0.112975866
-0.016202195 0.57435906 0.20203425 0.3504732 0.23772839 0.13390139 0.15400305 -0.22304308
0.27748314 0.5688745 -0.017890614 0.29343876 0.07461593 1.2180264 0.3122272 0.20091027
-0.019784743 0.39445013 -0.18021189 0.5688749 -0.26437 1.2003076 0.23201413 -0.16572304
0.26959437 0.4625053 -0.14761847 0.38117847 -0.31088692 0.011438583 0.7008555 0.56133604
0.8243152 0.044811416 -0.037854712 -0.30538192 0.40762958 0.5699315 0.26905334 0.29877236
0.52284205 -0.18931724 -0.54386216 0.39503297 -0.16593015 -0.29295906 0.5146517 -0.06669189
0.425873 0.41851512 -0.2646391 0.43272704 0.33436158 -0.05105366 -0.6881752 -0.23696244
0.28171727 0.4386871 0.5573585 -0.10508115 0.35702154 -0.22949022 0.55658597 0.10581696
0.35630292 0.3284171 -0.30784097 -0.0714226 0.19197732 0.4266436 0.54622936 0.13993569
-0.12912731 0.46960196 -0.27076584 0.1483862 0.50862426 0.6133446 0.32963893 -0.31383651
0.25283304 0.30914944 0.37585586 0.3502406 0.20807195 0.031908683 0.120188184 0.21949077
1.278622 -0.17436694 0.14866546 0.52275276 0.112856545 0.35518292 -0.11783599 -0.20861192
0.4339837 -0.1196303 0.65590745 -0.07237923 -0.13597165 0.4766926 -0.48228237 -0.107635595
-0.09973522 0.89671785 0.5466234 0.04270409 0.3088552 0.2691475 0.096000195 -0.28631258

network.3.weight f4 [41, 128]
00000000: 14b8 5fbd aa1a 8ebd 8110 33bf ec2b acbf
00000010: db98 a4bd 6be7 553d 7788 a1bd e978 e0bc
00000020: 8bf9 7bbe 70ca eabe 50f5 bf3c 24cc fe3d
00000030: e82a babf c10f 1c3c a851 80bf 6952 24bd
00000040: 460e 7bbf fdd5 dc3d de9e f7be 6ecb 7fbe
00000050: dbec a9be 1bf1 f5be f45b f5be 3aaf 3e3d
00000060: b7e3 a2be 6982 0f3e 9545 8abf 6f87 70be
00000070: e2b6 4ebf d975 2c3f 1d15 9bbe 3be6 d6be
00000080: d30b 933d 16a2 53bd 61fa 51bd 4ba1 d43d
00000090: 8b6a b0bd 630d 3d3f ffcc bfbe c2ff 013c
000000a0: 7c40 e5be 7560 6cbe caa6 a7bd 40c8 50be
000000b0: efd8 8b3d cc2b e6bf 9a77 933e 38f5 1e3e
000000c0: 4824 933e a305 7bbf 35e8 ddbc 2631 363d
000000d0: 2c34 2dbe 2aaf 5abd 45cf 43be 72b9 35be
000000e0: 50c7 ac3d de3e 2cbd 9d98 41bf 5685 5bbe
000000f0: df9b b0bd fff7 9ebd c261 4abd eaf6 803d
00000100: 43bc 26be dd1e 46be 23ba 52bd 3e38 6cbe
00000110: fc92 8dbe 05f3 a13d e687 75bf 9eb9 f4bc
00000120: 2de1 58be 770d 30be e64e ca3d 41eb af3c
00000130: 4765 53be e236 49bd 6d9c cb3d 0427 17bf
00000140: 5731 65be fa16 4dbe 7973 303d 10a0 873d
00000150: fee6 ddbe 2319 79be dd6d 0bbe cfc1 ebbe
00000160: b31b 943d 5b10 64bc 3723 47bc d35e 1bbf
00000170: d78e 9fbe ef4c 2e3e db11 8cbe 6169 70bc
00000180: efc3 c0be 9c79 11be d0cf a5be a0aa a2be
00000190: 708a debe 7241 bdbf 0f4a 2dbf db7a 70be
000001a0: d163 303f 6e51 ccbf 35fa 08bf 7689 f6bd
000001b0: 69fe ecbe 96dc b6be a5f3 fcbc 6839 6abd
000001c0: db29 6cbe 3a19 e6bf 83b0 3e3e 3b2b 2f3d
000001d0: 6449 47bf e4ea 17bd 9ce5 a7bf 346f f2bc
000001e0: 932c 2c3c 5b62 033f 100b 5cbe b892 8ebf
000001f0: 8d5b b2be 6697 b5be 30e9 7cbf 6d44 7ebd
00000200: 5962 b0bd b13f 2bbd 7a59 ecbe de9f 88bf
00000210: 7f01 b33d 3695 7c3d 9a41 7b3d af91 963d
00000220: 04dc 41be 9869 bdbe 39a4 4fbd 607d a43d
00000230: 746b c4bf 3cd6 023c 26f9 81bf 2bc6 7abd
00000240: 8566 70bf 60c3 e73d 4dee 9cbe 9c18 edbd
00000250: 2a23 b0be 6f58 c1be 6bc9 abbe 16eb 8d3d
00000260: 21c5 9dbe b4f7 733e f1d2 94bf a98a 94be
00000270: 578c 39bf bc39 113f 7251 55be 3235 d0be
00000280: 2ca8 4ebd 5739 b8bd 0eeb 91bd 9481 1c3e
00000290: 7ee6 fdbc 25e6 f73e 9d38 a6be d9f7 8fbd
000002a0: fcdc 97be ea0f 69be 623b 623d 6a89 1fbe
000002b0: 9271 b03d 6c5f bdbf 3612 073e f1c5 2e3d
000002c0: ba19 133e 56a0 5ebf 2fb0 da3c 294c 863d
000002d0: 544e 4dbe 6c3f 6dbd 14ca 82be dc3f d1bd
000002e0: aa93 313e fea1 74bd 42a4 46bf 3272 0cbe
000002f0: e58b 2fbd 5bfb 023b b75a 05be a9e0 1c3d
00000300: 1b79 14be f02b b6bd cd51 923d d4ee 63be
00000310: 40da 8ebe 2d34 0a3c 55c9 83bf 6f4b 933d
00000320: 18ca 77be 55b2 59be de81 c83d b3bf 92bd
00000330: 8888 78be c06e 44bd 319e 133d 91b6 f1be
00000340: a1ae 18be 1218 1abe f7f3 823d 289e 9a3c
00000350: e254 e7be da32 49be d8e0 213b 6e57 ffbe
00000360: e17f 863d ab17 37bc 1432 38bd 5eab c1be
00000370: cd31 87be 96c1 293e 9e62 19be 26af 99bd
00000380: af65 a8be 0052 35be d783 17be 44a8 85be
00000390: 3699 c7be 6085 a5bf 9b3c e9be 8dc7 8bbe
000003a0: c71d 113f 0d88 d5bf 73c8 b9be 183a 19bd
000003b0: 253a bcbe 864e 72be 02c0 81bc 215e a13c
000003c0: fab6 2dbe 08f5 f9bf 0d2b b73c 6d67 2c3d
000003d0: f548 53bf 3244 adbc 3d2f b3bf c69e e23c
000003e0: 7a69 a7bb f76b d83e 2b7f 5dbe eb0f 7bbf
000003f0: d9b9 a6be f912 bbbe 4ae7 4cbf 4293 efbc
-0.05461891 -0.069386795 -0.6994706 -1.3450904 -0.08036967 0.05222265 -0.07887357 -0.027401404
-0.24606912 -0.45857573 0.023432404 0.124412805 -1.4544344 0.00952524 -1.002492 -0.040117655
-0.98068655 0.107830025 -0.48363394 -0.24979946 -0.3318852 -0.4803551 -0.47921717 0.046553828
-0.31814358 0.14014591 -1.0802485 -0.23489164 -0.8074781 0.6736732 -0.30289546 -0.41972527
0.0717999 -0.05166825 -0.05126417 0.10382327 -0.086140715 0.7384855 -0.37461087 0.007934513
-0.4477576 -0.2308367 -0.08186109 -0.2038889 0.06828486 -1.7982116 0.28802186 0.15523231
0.28738618 -0.98055476 -0.027088264 0.044480465 -0.16914433 -0.053389706 -0.19122036 -0.17746523
0.08436453 -0.042052142 -0.75623494 -0.21437582 -0.0862348 -0.07762145 -0.049409635 0.06297095
-0.16282754 -0.19347711 -0.051447045 -0.2306833 -0.27651203 0.079076804 -0.9591049 -0.029873665
-0.21179648 -0.17192636 0.0987833 0.021474482 -0.20644103 -0.049124606 0.09941945 -0.5904391
-0.22382103 -0.20028296 0.043078873 0.066223264 -0.43340296 -0.24325995 -0.13616128 -0.46046302
0.07231846 -0.013919915 -0.012154392 -0.60691565 -0.31163666 0.17021535 -0.27357373 -0.014673562
-0.37649485 -0.14206547 -0.3238511 -0.31770802 -0.43464994 -1.4785597 -0.6769113 -0.23484366
0.6890231 -1.596235 -0.53506786 -0.12037937 -0.4628785 -0.3571517 -0.030877898 -0.057183653
-0.23062842 -1.7976449 0.18622021 0.042765837 -0.7784636 -0.037089244 -1.3116946 -0.029594041
0.010508674 0.51321954 -0.21488595 -1.1138525 -0.34835473 -0.3546707 -0.98793316 -0.062076975
-0.08612508 -0.041808788 -0.46162015 -1.0673788 0.0874052 0.061665736 0.06134186 0.07352006
-0.18931586 -0.36994624 -0.050693724 0.08031726 -1.5345292 0.007985648 -1.0154159 -0.061224144
-0.9390643 0.11316562 -0.3065056 -0.115769595 -0.34401828 -0.37762782 -0.33552107 0.06929605
-0.3081446 0.2382496 -1.1626874 -0.2901204 -0.72479767 0.5672872 -0.2083185 -0.40665585
-0.05045335 -0.08995312 -0.07124911 0.15283805 -0.030993696 0.48417774 -0.32465068 -0.07029695
-0.29660785 -0.22759977 0.055232413 -0.15579763 0.08615412 -1.4794745 0.1319054 0.04266924
0.14365283 -0.86963403 0.026695339 0.06557495 -0.20049411 -0.057921812 -0.25544798 -0.10217258
0.17341486 -0.0597248 -0.7759439 -0.13715437 -0.042858023 0.0019986245 -0.13022886 0.03830019
-0.14499323 -0.08895099 0.071445085 -0.22259074 -0.27900887 0.008435291 -1.0295817 0.07192122
-0.24198186 -0.21259435 0.09790395 -0.0716547 -0.24270833 -0.047957182 0.036039535 -0.472096
-0.14910366 -0.15048245 0.06394189 0.018874243 -0.45181948 -0.19648305 0.0024700668 -0.4987139
0.0656736 -0.0111750765 -0.044969633 -0.37826055 -0.26405182 0.16577753 -0.14979026 -0.0750411
-0.32890078 -0.17707062 -0.14796387 -0.2610494 -0.38984078 -1.2931328 -0.4555405 -0.27300683
0.5668606 -1.6682144 -0.36285743 -0.03740892 -0.3676311 -0.23662767 -0.015838627 0.019698204
-0.16964331 -1.9527903 0.022359395 0.042090822 -0.825332 -0.021150682 -1.3998791 0.0276636
-0.0051090093 0.4226987 -0.21630542 -0.98071164 -0.32563666 -0.36537912 -0.8004042 -0.029245023

network.3.bias f4 [41]
00000000: 5519 3ebd 73ef 43be 202f c8bc 0302 f7bc
00000010: d5cb d9bb 9317 2dbd 3046 21bc fe4f ebbd
00000020: 2b3c dfbd f760 23bc 8d4d a5bd 8b0d 92bc
00000030: 9494 0bbe 51ec d2bc c226 c23c c2ab b0bd
00000040: af6e fe3b f180 c73c e212 033c a43e d7bb
00000050: 0b24 c4bc a272 743c d804 783c 0a1e 30bd
00000060: bd8e 543a dbe3 babc ef38 b4bd fa6f 113c
00000070: 6bf8 2abe c825 d7bc b0ec 05be c75f 4abe
00000080: 045f bdbd 26ad 17be a980 72be 95b9 80be
00000090: c9ab 54be da32 9cbe 1425 a4be 4fa7 a5be
000000a0: 6933 bfbe
-0.046410877 -0.19134311 -0.024436533 -0.030152326 -0.006646613 -0.04225881 -0.009843394 -0.11489867
-0.10900148 -0.009971849 -0.08071432 -0.017828723 -0.13630897 -0.02574745 0.023700122 -0.0862651
0.0077646594 0.024353476 0.0080001075 -0.0065687466 -0.023942968 0.014919909 0.015137874 -0.042997397
0.0008108428 -0.022813728 -0.08799922 0.008876795 -0.16696326 -0.026263133 -0.1307857 -0.19763099
-0.092466384 -0.14812145 -0.23681892 -0.25141588 -0.20768656 -0.30507547 -0.32059538 -0.3235421
-0.3734391
