code/disease_predictor_final.pt (torch, 91517 bytes, 4 tensors)

network.0.weight f4 [128, 131]
000000 b5 e0 4b 3d 2d 98 7f bd fd 9d 90 3e b3 53 6e 3e
       0.049774844 -0.062400986 0.28245535 0.23274116
000010 25 44 45 3e 28 9d 14 3e bb 98 a7 3d 18 7a c0 3d
       0.19264276 0.14513075 0.08183428 0.093982875
000020 a7 7c 81 3d 85 c6 24 be 49 5d 18 3f 81 81 09 3f
       0.06322604 -0.16091354 0.5951734 0.5371323
000030 27 64 bb bd ef 63 15 3e 0c 62 05 3d de 7c fd bd
       -0.09149962 0.14588903 0.032564208 -0.12377332
000040 7b 46 0f 3c d5 de 3b be 97 15 b4 3e 0a 5f c0 3e
       0.008744831 -0.18346722 0.35172722 0.3757251
000050 47 b4 0f be d9 3d 12 3e 37 1e 40 3f 43 c3 be bd
       -0.14033614 0.14281406 0.75046104 -0.09314587
000060 38 50 1d bc 05 53 8b 3e 61 63 9e 3e 81 c4 69 3e
       -0.009601645 0.27211776 0.30935195 0.22828867
000070 05 6b 82 3e 83 d1 f3 be ea 3c c8 3e 32 13 4d 3d
       0.25472274 -0.47620782 0.39108974 0.050067134
000080 3f 5d 68 3d 35 d6 ef 3e 6a 11 a8 be 9b 4a bc 3e
       0.05672955 0.46843114 -0.32825786 0.3677567
000090 49 9e 6d bd 0a 77 80 3e 09 43 62 be 5e 3e fc be
       -0.05801228 0.2509082 -0.22095884 -0.49266332
0000a0 9b 17 f6 be 40 47 e9 be bc 8c 6f 3e 7d bb 5f bd
       -0.48064885 -0.45562172 0.2339353 -0.054622162
0000b0 8d f4 bd 3c 12 ef b7 3e 0d 12 0c bf cd 7f 82 3e
       0.0231879 0.35924584 -0.54715043 0.2548813
0000c0 4f 2e f1 be b5 85 76 bd 9f 17 18 3e 2d 7b 88 be
       -0.47105643 -0.060186107 0.1485276 -0.26656476
0000d0 f5 fc 51 bb 5a a4 6f 3e 6b 7d 09 be 30 a4 f4 3d
       -0.0032041643 0.23402539 -0.1342675 0.11945379
0000e0 85 c1 17 be a8 fe 28 3d 7a 2f 9b be 37 4d 35 bf
       -0.14819916 0.041258484 -0.3030966 -0.70820946
0000f0 cb 71 ba be 11 f0 0e 3e f9 6c 37 3f 48 c7 2c bf
       -0.36414942 0.13958766 0.71650654 -0.6749158
000100 97 f5 3c 3e f5 16 96 3e 2e 90 01 be cf 4b 97 be
       0.1845306 0.2931439 -0.12652656 -0.29550025
000110 04 cb 29 3e ec 5b 51 be 90 fa 82 be 60 51 81 3e
       0.1658135 -0.20445222 -0.2558179 0.25257397
000120 ab 0b 8f be 28 ad 63 3e 27 ba 6c be c3 c0 96 3e
       -0.2793859 0.22234023 -0.23117886 0.2944394
000130 46 d3 6b bd ef a9 a5 bc bf a2 65 be 7c 22 be 3e
       -0.057574533 -0.020222632 -0.22425364 0.37135684
000140 56 92 b0 be 0f c7 59 be 85 ca 0f 3e 06 31 2b be
       -0.34486645 -0.21267341 0.14042099 -0.1671792
000150 ff d2 28 3e 84 c4 17 bf 1b c1 ac bd 43 13 e0 be
       0.16486739 -0.59284234 -0.084352694 -0.43764696
000160 0c d7 14 bf 11 45 14 3f 71 b2 65 bd 66 1d 13 3f
       -0.58140635 0.57917887 -0.056078378 0.57466733
000170 56 ac 39 bd cb b3 82 3f 88 e3 1a be a7 9b 83 be
       -0.045330368 1.0211118 -0.15125859 -0.2570469
000180 8f ae ad bd 85 8b 4c 3e 3d a0 4d 3e c0 f0 b0 3e
       -0.0848056 0.19975097 0.20080657 0.34558678
000190 51 ef e9 bc 61 2c 18 3e 86 ec 99 bb fc 85 0d 3e
       -0.028556498 0.14860679 -0.0046973852 0.13820642
0001a0 da ba c8 3d 36 b7 a3 3e 6e ee 8c 3e 26 4e 4c bd
       0.09801264 0.31975716 0.27525657 -0.049879216
0001b0 4b d9 be be 74 da ad 3e b0 70 d1 3e 29 86 56 be
       -0.37275156 0.3395573 0.40906286 -0.20949616
0001c0 3c 66 80 3e 4a 2c 98 3e 89 98 78 bc 3d 25 88 3e
       0.25078 0.2972129 -0.015173086 0.2659091
0001d0 9c 5a 10 3e 28 5d 23 3e ae 76 fe 3e 38 e3 2c 3d
       0.14097065 0.15953505 0.4969992 0.04220888
0001e0 29 54 83 3e d7 a7 cd 3e 56 88 1c bf 8a 56 15 be
       0.25650147 0.40167114 -0.6114553 -0.14583793
0001f0 cf 8f 8c 3e 5f 55 64 be d3 cc 92 3f 52 02 17 3f
       0.27453467 -0.22298191 1.1468757 0.58987916
000200 4b 92 d6 3c 35 11 4c bc 6e 6c 79 3e 52 68 85 3e
       0.026192805 -0.012455274 0.24357769 0.26056153
000210 0d 50 ca be b0 b6 f0 be d2 51 1c 3e 80 ec 27 bd
       -0.395142 -0.4701438 0.15265587 -0.04099703
000220 41 9a 06 3e 92 6d 60 3e 6c 64 8e 3e da cd 83 3e
       0.1314478 0.21916798 0.2781099 0.2574299
000230 75 24 08 3f 96 18 f5 be 5d 08 f4 bd 0f 8e 21 be
       0.5318063 -0.4787032 -0.11915658 -0.15776847
000240 d5 ba d6 be b0 05 01 3f 6d 4e e5 bc 64 9d 12 3e
       -0.41939417 0.50399303 -0.027991498 0.14317852
000250 d9 bd 7d 3f 2d 73 8b be 90 49 00 3e a3 5d 9a 3d
       0.9911781 -0.2723631 0.12528062 0.07537391
000260 96 0f 12 3f c8 cf a4 3e a5 2a 89 3e e2 2f 9c 3e
       0.5705503 0.32189775 0.26790348 0.30505282
000270 42 55 90 be ee 1d 94 3e 2e f0 ab 3e cd 21 2b 3f
       -0.28190047 0.28929085 0.3358168 0.6684845
000280 bc 15 57 3f 0e 1f 04 bd df 89 b5 3e ba 33 a7 ba
       0.8401754 -0.03225618 0.3545675 -0.0012756505
000290 40 c7 d5 be df 05 14 bf fd 08 6a be 86 c8 95 bd
       -0.41753578 -0.5782146 -0.22854991 -0.073136374
0002a0 36 72 de bc ba 19 26 3f e6 6b 07 3f ca be bc 3e
       -0.02715407 0.64883006 0.52899015 0.3686431
0002b0 12 3c d6 3d 5c 43 29 bf 89 ae 1c 3f a5 99 5f bd
       0.10460676 -0.6611841 0.6120382 -0.054589886
0002c0 7c f2 47 3f 8f f5 05 3f 9a ac 9a be 28 20 f9 bd
       0.78104377 0.5232782 -0.3020981 -0.121643364
0002d0 a5 3a 5c 3f d4 6d b1 3e 71 10 b2 3e 22 40 e3 be
       0.86026984 0.34654105 0.3477817 -0.44384867
0002e0 8a 70 c0 be 7c e8 aa bd 01 e2 d2 be 89 2e ff 3e
       -0.3758586 -0.08345124 -0.41188052 0.4984019
0002f0 7c 5d 0e 3f 07 a4 5e 3e 54 5a ac bd 43 9f 87 bd
       0.55611396 0.21742259 -0.08415666 -0.06622174
000300 b5 a1 8f bd 56 5b 8c 3e 06 5c b4 3d 29 c3 9b 3e
       -0.07013265 0.27413434 0.088066146 0.30422333
000310 f8 de e5 be c3 e7 1d bf 82 81 46 3e a0 8c 39 3f
       -0.44896674 -0.61681765 0.19385341 0.724802
000320 34 29 ba 3e 16 ef 1f bf 90 3e d7 bd 30 37 56 3e
       0.3635956 -0.6247419 -0.1050998 0.2091949
000330 22 37 37 3d f7 f2 92 3e 09 d4 22 3e 49 70 17 3c
       0.044730313 0.28700992 0.15901197 0.009243079
000340 88 91 ac bc 81 b4 22 3e b5 fd 8e be 68 cd 1d 3f
       -0.021065488 0.1588917 -0.27927938 0.6164155
000350 51 dd 16 3f 44 8f 9d 3e 5c 5c 78 3b 02 5e e1 3e
       0.5893145 0.30773365 0.0037896847 0.44017035
000360 5d 41 a5 be bb 1a fe 3e f5 4a a8 3d f2 b0 63 3f
       -0.3227643 0.4962977 0.08217422 0.8894187
000370 dd f9 92 be e4 d2 34 bf d8 bb d5 3e 28 e1 4f bc
       -0.28706256 -0.70634294 0.41744876 -0.012687959
000380 34 10 40 3f 39 30 a6 3e cf e1 02 3f 5b 78 42 bf
       0.75024724 0.32458666 0.51125807 -0.759649
000390 f0 ea cd 3e c4 38 1a 3f 8a fd 08 3f da ff 01 bf
       0.40218306 0.6024287 0.5351187 -0.50781024
0003a0 14 77 95 be bb db e0 3e 47 2e 17 3d d8 af 64 be
       -0.29192412 0.4391764 0.036909368 -0.22332704
0003b0 cc 4e b4 be 7e 92 8c 3e fa 34 93 be 34 74 e8 3e
       -0.35216367 0.27455515 -0.28751355 0.45401156
0003c0 0a 84 07 bf 0b 00 dc be fa bd 19 3e 54 88 13 bf
       -0.5293585 -0.42968783 0.15013877 -0.57629895
0003d0 7d c1 91 3e f3 e3 3c 3d fc 0f 0e 3f 34 d5 6f 3f
       0.28467932 0.046115827 0.5549314 0.936847
0003e0 79 33 0f 3f 52 87 0c be 79 df 06 bd 29 7c 92 3d
       0.55937916 -0.13723496 -0.032927964 0.07152588
0003f0 72 0f bd be 56 07 95 3e 2d 2f 63 3d e1 cb ce bc
       -0.36925846 0.2910716 0.055464912 -0.025243701

network.0.bias f4 [128]
000000 b0 3c 1f 3e 98 74 8b 3e 3c 42 61 3e 07 0f 7e bc
       0.15550494 0.2723739 0.21997923 -0.0155065125
000010 9a c6 09 3e b4 b5 48 3e dc db 96 3e 1e 8e 73 3e
       0.13454667 0.19600564 0.29464614 0.23784682
000020 d3 fa a0 bd c7 6a ee bb 60 ae 0e 3e f6 33 8b 3d
       -0.07860341 -0.0072759124 0.13933706 0.0679702
000030 61 92 42 3d f6 9a d9 be 41 e8 71 3d 76 d1 2d 3e
       0.04750288 -0.42501038 0.059059385 0.16974434
000040 99 c5 8c 3d 14 fa 26 3e 2d bd e3 3d 01 7d e1 3d
       0.06873626 0.16306335 0.11120067 0.11010171
000050 9f 7e 9e 3e b2 b0 5b 3e 72 90 8d 3e 4d c4 93 be
       0.3095598 0.21454123 0.27649266 -0.28860703
000060 a6 8e 4d 3e 25 fd 98 3e 67 3e ab 3e 1f 4a 33 be
       0.20073947 0.29880634 0.33446047 -0.17508744
000070 ca af eb 3d 70 15 07 bf 9e 74 5b bc 81 b4 58 3e
       0.115081385 -0.52767086 -0.013394503 0.21162607
000080 ff c5 27 3e cd bd b2 3e 33 69 32 bd ad 5c 11 3e
       0.16384123 0.34910432 -0.043557357 0.14195509
000090 e2 c5 25 bd c1 53 1b 3e dc ce 8a 3e 85 fe 02 3c
       -0.04047192 0.15168668 0.27110946 0.0079952525
0000a0 e0 4a bf be f4 01 24 be 08 52 ba 3d 40 6c 2d 3e
       -0.37361813 -0.1601637 0.090976775 0.16935825
0000b0 fb 4c 27 3e 68 05 14 3e f2 65 61 be 22 16 8e 3d
       0.1633796 0.14455187 -0.22011545 0.06937815
0000c0 17 24 97 3e a2 ed 22 be cf b8 1e bf ee 7c c5 3d
       0.29519722 -0.15910962 -0.62000746 0.09642969
0000d0 8c e0 38 3e 5a bd ca 3d 16 81 37 3e 33 d7 f4 3d
       0.18054408 0.09899397 0.17920336 0.119551085
0000e0 45 ef 94 3e 2d ca 42 3e ab de 62 3e 8e 05 d0 be
       0.29088798 0.19022436 0.22155254 -0.40629238
0000f0 d9 c1 42 3e dd 4c 4b 3d d9 bc 1c 3e 22 c8 98 bd
       0.1901926 0.04963385 0.15306415 -0.07460047
000100 fa 59 c0 3d 97 63 c8 be e2 c3 11 be f3 04 91 3e
       0.09392162 -0.3913848 -0.1423488 0.28324088
000110 cc 92 15 3e f1 81 a5 bd 16 b4 e9 3d 68 b4 a5 3e
       0.1460678 -0.08081425 0.11411302 0.32364202
000120 26 54 60 3e 42 95 aa 3e 99 72 8b 3d f0 39 15 bc
       0.219071 0.33317 0.06808967 -0.009108052
000130 04 5f e8 3d f9 50 59 3e fc dd a2 3e 63 fc 01 3e
       0.11346248 0.21222295 0.31809986 0.12693934
000140 f5 bf 24 3e 96 c2 d7 3d 3b 83 98 3d 1e f3 b5 3e
       0.16088851 0.10535161 0.07446905 0.35537046
000150 e7 12 82 3c ab ff 47 3e cd 56 fc 3d a1 de e8 3e
       0.015878154 0.19531123 0.123212434 0.45482352
000160 fe a6 2c 3e 19 9a cc 3d 23 f8 06 3f d6 1e b1 3e
       0.16860577 0.09990329 0.52722377 0.34593838
000170 dd b3 82 3e f5 e1 4d 3e 9f 1f 0f 3e 12 ba 6b 3e
       0.2552785 0.20105727 0.13976906 0.23020199
000180 e2 30 7e be 6e 90 82 3e 8c a7 c6 3e 38 04 bf be
       -0.24823335 0.25500816 0.38799703 -0.37307906
000190 bc d2 43 3e aa 20 71 3e 33 a9 68 3e bb 89 d7 bd
       0.19123358 0.23547617 0.22720794 -0.10524317
0001a0 a1 ab 1e 3e 9b 1c d2 3d 50 c5 7b 3e a7 4c 2a 3e
       0.15495159 0.10259362 0.24586987 0.16630803
0001b0 ca a8 2b bd a9 e8 85 3d db dd 69 3e 0a 4c 20 3e
       -0.041909017 0.06538517 0.22838537 0.15654007
0001c0 80 0c 29 3e 6a 19 ec 3d 7f 1c 0a 3e d7 e5 83 be
       0.16508675 0.11528285 0.13487433 -0.2576129
0001d0 f4 90 27 3e 54 93 69 bd 2d 73 da 3e 9b f0 c4 bd
       0.16363889 -0.05702527 0.42665997 -0.09616204
0001e0 9e f2 21 3e 29 31 e9 be 56 11 21 3e 27 34 79 3e
       0.15815207 -0.4554532 0.1572927 0.24336301
0001f0 36 84 90 3e 6d da 35 bd e5 92 20 3e b3 1e ff be
       0.2822587 -0.04439776 0.15681036 -0.4982811

network.3.weight f4 [41, 128]
000000 44 21 b0 be c8 d1 5e 3e ba 64 0a bf f5 f6 8f 3e
       -0.3440038 0.21759713 -0.54059947 0.281181
000010 da e4 94 3e 22 df 67 bd 08 b2 d7 be fa fb cc be
       0.2908085 -0.05660928 -0.42128015 -0.40035993
000020 1d 45 a2 3e a9 51 7c 3e 7d 7e d5 be f5 85 63 3e
       0.31693354 0.24640526 -0.41698065 0.2221907
000030 97 54 14 bf 8c 9f be be 8d 82 99 3e 55 2a f0 be
       -0.57941574 -0.372311 0.29982415 -0.46907297
000040 37 0b 51 3e f8 b2 90 3e 51 aa 2f bf da 1d 0c bf
       0.20414434 0.28261542 -0.6861926 -0.5473305
000050 97 6c bf be 17 ce d9 bd 22 bf cc be 7d 67 59 bf
       -0.37387535 -0.10635012 -0.39989573 -0.84923536
000060 c7 0a 81 3e 01 e3 99 3e 9c fc 9e 3d 3e 02 fd be
       0.25203535 0.30056003 0.07763025 -0.49415773
000070 da 46 e8 be b5 94 2e 3f 46 70 89 3e 88 ec 0f be
       -0.45366555 0.6819566 0.2684347 -0.14055073
000080 55 c5 93 3e dc 1a 88 3e 9e 55 7c 3e 9e 16 3b 3e
       0.2886149 0.26582992 0.24642035 0.18270347
000090 c9 21 10 bf 88 89 dd be 66 6c 88 3e 98 76 c2 be
       -0.5630155 -0.4326899 0.266452 -0.37981105
0000a0 25 7e 69 bf 44 1d 8a 3e 4c 73 d4 be 14 89 a7 3e
       -0.91208106 0.26975453 -0.41494215 0.3272177
0000b0 1c 66 39 bf 6c 73 8d 3e 83 c6 27 bf 71 93 a9 be
       -0.7242143 0.27627122 -0.6553728 -0.331203
0000c0 e0 49 87 3d 23 74 ac 3e ae 3b 7f bf ef 27 b8 be
       0.066058874 0.33682355 -0.9970044 -0.35967967
0000d0 ff 55 2d bf 1f f7 ed bd 2e 38 b8 3e 85 af 8d 3e
       -0.67709345 -0.116194 0.35980362 0.27672973
0000e0 23 69 2c bf 2a ea 37 be 1d 9e d4 be 2f 61 4f bf
       -0.67347926 -0.1796042 -0.4152688 -0.81007665
0000f0 0a 48 a1 3d 6b 92 e0 be e6 a2 24 bd e9 df 54 bf
       0.078750685 -0.43861708 -0.040194415 -0.8315416
000100 94 62 fb be 6a 3b a7 3e 2f 51 22 bf 51 1e bc be
       -0.49098647 0.32662517 -0.63405126 -0.3674188
000110 1d 4d a0 3e f6 aa 1a bf 0e f3 c3 be 08 c8 a7 be
       0.31308833 -0.60417116 -0.38271374 -0.327698
000120 f5 9e b8 be e5 4e 92 3e 06 83 47 bf 9d bf 26 bf
       -0.36058775 0.28575817 -0.779343 -0.6513613
000130 5d fd 23 bf d7 5d 79 3e 9f 6a c3 be 14 ae 13 bf
       -0.64058477 0.24352203 -0.38167283 -0.576875
000140 ed c0 83 3e 39 eb 0d bf 46 03 09 bf fa e9 95 3e
       0.25733128 -0.55437046 -0.5352062 0.29280072
000150 be d0 51 bf 28 5e d0 be 2a 92 07 bf 3c d7 3a bf
       -0.8195914 -0.40696836 -0.52957404 -0.7298467
000160 4c e3 f9 be 48 14 6c 3e b9 aa 4d bf af 71 b3 3e
       -0.48806226 0.23054612 -0.8033863 0.3504767
000170 08 02 04 bf f8 fa 03 bf cf 9d 93 be a6 b8 20 bf
       -0.515656 -0.5155482 -0.28831336 -0.6278175
000180 ee 06 53 bf b2 ea 98 3c c2 fa ae be 7f da b2 3e
       -0.8243245 0.018666599 -0.34175688 0.34932324
000190 59 6d af 3e 6d e8 9b be f4 de 30 bf cf 90 a4 be
       0.34263113 -0.30450764 -0.690902 -0.3214173
0001a0 ff 24 be be 38 66 83 3e 4a 43 e0 3d b4 77 89 3e
       -0.371376 0.25663924 0.10950334 0.2684914
0001b0 e4 7b 9f 3e a3 f1 d2 be a4 86 c0 be bd f2 cd 3e
       0.3114921 -0.4119998 -0.37602723 0.40224257
0001c0 7d 25 cb be 49 fe 25 bf e5 c2 a4 3e 4c ad 4a bf
       -0.3967704 -0.64841133 0.32179943 -0.7917068
0001d0 ca 83 01 bf 5a 22 f6 be f7 38 b6 be 76 3f 00 bf
       -0.5059172 -0.48073083 -0.35590336 -0.50096834
0001e0 37 5a e4 be f2 ca 46 3e 8a ab 99 be 83 ab 03 bf
       -0.44600078 0.19413355 -0.30013686 -0.5143358
0001f0 c4 f8 98 3e 3e c8 53 bf a6 5a 1a bf b3 64 bc be
       0.29877293 -0.8272742 -0.6029457 -0.36795577
000200 96 0e 00 bf 75 42 9e 3e bd c8 35 bf a7 4d 97 3e
       -0.50022256 0.30910078 -0.7100943 0.29551432
000210 5c d3 a3 3e 63 06 0b bf a0 0c bd be 1d da 04 bf
       0.31997192 -0.5430662 -0.36923695 -0.51895314
000220 03 93 0d bf c0 3a 19 3e c7 c2 08 bf a3 09 48 3e
       -0.5530245 0.14963818 -0.53422207 0.19534926
000230 fa 66 f1 3e 3e 84 87 3e b1 8b 8f 3e 01 14 ff be
       0.47148877 0.2646808 0.28036264 -0.4981995
000240 44 d3 2f bf b5 5b 2e 3e c0 14 0d bf 0e f4 ad be
       -0.6868174 0.17027171 -0.55109787 -0.3397526
000250 12 98 b3 be a9 6c 87 3e 70 ed 9b be e9 f9 cf be
       -0.35076958 0.2645009 -0.30454588 -0.40620354
000260 ec b8 63 3e f4 dc 08 be 2c 02 71 3e e0 c4 0f bf
       0.22238511 -0.13365537 0.23535985 -0.5615978
000270 aa 82 77 3e dd 1b 5d bf fe 24 5b bf 5a 5d 82 3e
       0.24170938 -0.8637064 -0.8560332 0.25461847
000280 fb 25 28 bf f6 3f 96 3e 0f b7 05 bf 45 23 9a 3e
       -0.65682954 0.29345673 -0.5223245 0.30105034
000290 ed 1e 03 bf 91 6a df be 83 70 82 3e a3 33 a9 bc
       -0.51219064 -0.4363599 0.25476465 -0.020654505
0002a0 33 0d 4f bf 0e 0d 45 bf 4c 94 99 be 63 33 85 3e
       -0.80879515 -0.76973045 -0.29995954 0.26015767
0002b0 7c 4a 89 3e 53 51 9c 3e 41 7a 1c bf 0e 73 b5 be
       0.2681464 0.30530795 -0.61124045 -0.35439342
0002c0 5d 10 2e bf c4 14 07 bf 62 f0 90 bf af dc ff be
       -0.6799372 -0.5276606 -1.1323359 -0.49973056
0002d0 b3 ce d1 be c1 69 b4 3e 66 4c 9f be 2e 13 1a bf
       -0.4097801 0.35236934 -0.31112975 -0.60185516
0002e0 83 21 bb be 24 46 85 3e e9 48 a2 be e3 b6 0f bf
       -0.36549005 0.26030076 -0.3169625 -0.5613844
0002f0 2e cd 48 3e f4 46 f9 be 53 c1 03 bf dc 29 06 bf
       0.1960952 -0.48686945 -0.51466864 -0.5240762
000300 12 f6 98 3e 93 af 1b bf 3a e5 ab be a8 3b 06 bf
       0.29875237 -0.6081478 -0.33573323 -0.5243478
000310 e4 9b f5 be 1c 5a 4e bf 00 63 0c bf 81 4b d4 be
       -0.47970498 -0.80606246 -0.5483856 -0.41463855
000320 7e 8b db be 11 04 4e 3e 25 6a 94 3e 42 18 10 bf
       -0.42879862 0.20118739 0.28987232 -0.56287014
000330 d9 b5 4b 3e 1f 3e 46 3e 61 7a 87 3e ef b1 96 3e
       0.19893588 0.19359635 0.26460555 0.29432628
000340 c2 d8 5c 3e 3a 3a a3 3e 60 3e 2c 3e 44 d0 44 3d
       0.21567062 0.3188036 0.16820669 0.04805018
000350 f0 e9 3d 3e 63 1c d3 be fb 3f e5 be a9 9c 0c bf
       0.18546271 -0.41232595 -0.44775376 -0.54926544
000360 ef 6d d9 be 0b 14 c4 be e0 1e 94 3d cf f8 0a bf
       -0.42466685 -0.38296542 0.072324514 -0.542859
000370 2a 67 16 bf 4b 55 e2 be d1 2a 49 bf a7 b0 bb be
       -0.58751166 -0.44205698 -0.7858096 -0.36658213
000380 0b 05 31 3f 73 1c ef be d6 3e b9 3e a5 16 41 bf
       0.6914832 -0.46701393 0.36180753 -0.7542518
000390 f6 bc 3e bf bb 7b 1a bf ed 23 91 3e d9 b6 8d 3e
       -0.7450708 -0.6034505 0.28347722 0.27678564
0003a0 7c fe 17 bf c9 e4 2c bf d3 8a 90 3e 66 e6 e6 be
       -0.5937269 -0.675366 0.28230914 -0.45097655
0003b0 d6 e1 e6 bd c2 0e f6 be b9 53 df be 42 9d 87 bf
       -0.112735435 -0.48058134 -0.43618563 -1.0594866
0003c0 f8 50 88 3e fc 03 0a bf 23 e1 12 bf 98 9b 60 3e
       0.26624274 -0.5391233 -0.5737478 0.21934354
0003d0 7d ea 22 bf c8 66 26 bf 6c e1 e7 be d3 3f 13 bf
       -0.6363905 -0.6500058 -0.4528917 -0.57519263
0003e0 a0 d4 25 bf 8c c5 3a bf 16 31 d6 bd bd c6 bd be
       -0.64777565 -0.7295768 -0.10458581 -0.37065688
0003f0 11 00 84 3e a5 aa 23 bf ed 92 95 3e ab 82 c7 3e
       0.257813 -0.6393226 0.29213658 0.3896688

network.3.bias f4 [41]
000000 e9 4d 64 bd 53 cd 13 3d 3b b3 7d bd 8b b8 c2 3d
       -0.055738363 0.036084484 -0.061938506 0.09507855
000010 65 80 45 bd de 52 bc bc ad e1 62 3d c0 70 4e 3e
       -0.04821815 -0.022988733 0.055391002 0.20160198
000020 16 5b 4a 3e ec ad 6f 3d 17 9a 32 3e 94 71 ba bc
       0.19761309 0.058515474 0.17441593 -0.022759236
000030 8f 61 37 3e 6d 6a 80 3d 58 9d 39 3d f6 5f 9e 3d
       0.1790831 0.06270299 0.04531607 0.07733147
000040 f3 71 68 3d 8a 36 3d 3d 22 a3 e3 3e 84 8a fa 3e
       0.056749295 0.04619459 0.44460398 0.48933804
000050 3d 15 a0 3e cd bb 1b 3f ba 61 34 3f 4f 46 f7 3d
       0.31266204 0.60833436 0.7046162 0.12073957
000060 f4 c9 84 3c 3c 27 8d bc 6e cc 08 bd 60 c5 c9 bd
       0.01620958 -0.017230622 -0.033398084 -0.098520994
000070 ab a7 3e 3e 23 c8 b6 3e 99 64 ca bc ed 09 57 bd
       0.18618648 0.35699567 -0.024706172 -0.0524997
000080 56 c9 cb 3d a6 11 9d 3d e1 19 27 3e fd ac 09 3d
       0.09950511 0.07669382 0.16318466 0.03361224
000090 4c 07 3c 3f 84 2e f4 3b ef d2 8a 3d 1b fe 86 bd
       0.73448634 0.007451834 0.06778514 -0.065914355
0000a0 7e ee 62 3c
       0.013850806
